models/darts_logs/Heatwave_TCN/Heatwave_TCN.pt.ckpt (torch, 24045 bytes, 40 tensors)

res_blocks.0.conv1.weight f8 [3, 31, 3]
000000 47 7c 0b d7 d9 33 d4 3f 63 74 a7 5c 15 5c 96 bf
       0.31566473007655244 -0.02183564546600215
000010 85 4c 93 95 1f 5e d5 bf a5 e2 f6 ab 83 6f da bf
       -0.33386983496638606 -0.41305629533193616
000020 3b a1 b2 0e 3d f3 d1 bf 22 68 9d a1 7d fe df bf
       -0.2804711001904427 -0.4999078825254647
000030 71 3d 2a 66 e8 8a 8e 3f 9d e0 79 a5 34 28 ad 3f
       0.01491338311941945 0.056947369765965684
000040 55 bc eb c8 6b b3 b3 bf e4 db 0c e6 a4 6b 73 3f
       -0.07695649771970754 0.004741329322135866
000050 4e ee bd bc 29 14 a5 3f 9e ad 52 7b 37 15 63 3f
       0.04116945675829396 0.0023294528605981154
000060 97 9d a5 ca 64 9b d2 3f 28 09 ba 84 97 0b cc bf
       0.2907344798063262 -0.21910375576778418
000070 96 8a 8d 0d 12 08 c3 bf b4 74 85 ca e5 a8 b2 bf
       -0.14868379270327087 -0.07288967317932099
000080 97 5a 76 98 41 e2 c2 3f 73 a6 db 73 27 19 c1 3f
       0.1475297922558709 0.1335801425660069
000090 8a cc 46 2c 8f b9 ae 3f 7d a7 c4 10 54 48 c6 bf
       0.0600094548748525 -0.17408228701361486
0000a0 38 6b 31 83 75 14 af 3f e7 b5 54 ff 00 1c a3 3f
       0.0607029650352246 0.03732302777130397
0000b0 da 23 08 c6 09 a2 65 bf a2 f7 ed db cb 63 59 3f
       -0.002640742386806211 0.0015496722041627793
0000c0 e9 78 24 96 34 b3 bd bf b3 7a 47 28 07 54 cc bf
       -0.11601570764148374 -0.22131432978399843
0000d0 5f cb e9 76 fb 80 c4 3f 74 fe ed 2d 23 f5 d3 bf
       0.16018622690497872 -0.3118370007068514
0000e0 3c dc 4d c0 90 b2 c1 3f bf 2c b9 fc 6f 33 bf 3f
       0.13826188459253952 0.12187862319949526
0000f0 04 b4 c0 86 78 74 9b bf 37 48 17 ba c8 75 b4 3f
       -0.026811488365797956 0.07992224257694223
000100 ca 4c 19 99 90 ac a7 3f 87 42 fa 2a 31 bc d2 bf
       0.046238440216848156 -0.2927363319113642
000110 85 28 6e 4f a0 09 c4 3f c5 2f 4d 12 fd 05 e6 3f
       0.15654376867707157 0.6882310254527445
000120 52 9f 8a f4 9c a0 95 bf 4f 09 ca 6b c2 11 bc bf
       -0.021120502877834575 -0.1096459878117788
000130 41 e9 5f f3 d8 e0 bc bf 15 92 2e c7 7f 01 8a bf
       -0.11280590001834857 -0.01269817186932535
000140 c0 22 26 b6 97 a3 9d 3f 04 df 69 0c a9 f8 99 bf
       0.028944368832102496 -0.025362626440681005
000150 ce 09 c8 65 8f bf a9 bf 7c 71 09 6d 14 53 95 bf
       -0.05028961293648458 -0.02082473674305295
000160 ad a8 6e c6 a2 cb bd bf a8 e2 f6 23 85 84 d8 bf
       -0.11638848633325223 -0.3830883837904744
000170 26 a1 b2 56 d3 af d7 bf 10 b4 ce 7c 98 67 e1 bf
       -0.37010653940753213 -0.5438959539075103
000180 43 3d 2a 66 49 c3 82 3f 7b 1f 86 da 93 1d a9 bf
       0.009161542349174772 -0.049053783822329465
000190 a9 43 14 57 24 c3 b8 3f 7b dc 0c e6 95 fb 79 3f
       0.09672762990909568 0.00634344629434402
0001a0 be 11 42 83 62 5a a8 bf 00 ab d4 de 57 98 86 3f
       -0.047564581415858495 0.011032759177927343
0001b0 1b 3b 4b 25 c7 d5 c8 3f 4e 12 74 89 cb e4 ba bf
       0.1940239841555574 -0.105053635652504
0001c0 f3 14 1b bb 1f f6 b9 bf 65 e9 0a 15 47 8d ae bf
       -0.10141180341732418 -0.0596716130434796
0001d0 fb 69 d9 e1 f1 a6 ad 3f 84 32 dd 1e c1 d0 9b 3f
       0.05791431314419878 0.02716352225188469
0001e0 39 b3 11 4b 09 44 c7 3f c9 4e 89 e1 55 c0 bd bf
       0.18176380315289878 -0.1162160564065814
0001f0 77 b5 98 e1 20 2e b6 3f 0f 4a ab 00 6c 57 a1 bf
       0.08664136417129052 -0.03387010105292997
000200 89 7d 9f 63 d5 19 a9 3f f2 be 7d 7b ed 3a 85 3f
       0.049025219355594514 0.010366301852371394
000210 a9 e3 91 58 e5 f0 96 bf 11 eb 1d 61 5d d0 a2 bf
       -0.022403319865108937 -0.03674594698437351
000220 40 97 d3 0d f2 ba bb 3f 75 fe ed 7d 5d bd d0 bf
       0.10832131230889974 -0.2615579347402453
000230 fb e1 6e 82 6a 56 92 3f 39 96 5c be 3e dc cc 3f
       0.017907776080138032 0.22547134680751116
000240 f4 2c b0 71 55 c4 b8 bf 39 48 17 1a ab cc ba 3f
       -0.09674581552114941 0.10468549143777829
000250 84 33 65 64 7e ea 83 3f 6b 42 fa d2 14 ae da bf
       0.009724605025121631 -0.41687508204726126
000260 be 28 6e 5f 15 f7 cb 3f c8 2f 4d 8a 19 b4 e6 3f
       0.21847788963015619 0.7094848347855924
000270 69 3e 15 e9 cf 14 8a bf 2e ed 6b a8 60 57 a5 3f
       -0.012735008526447449 0.04168226295402132
000280 41 e9 5f 73 7a d2 b5 bf c0 48 97 23 6e 37 9d bf
       -0.0852428943325423 -0.02853176204900687
000290 f9 d4 9d 9d 14 13 58 bf 6b ef 34 46 6a c5 a1 bf
       -0.0014693929028600213 -0.03470928294197403
0002a0 ff 04 e4 e2 94 d3 b8 bf 8f a3 bd 64 45 e5 bd 3f
       -0.09697847880672227 0.11677964887134194
0002b0 6c ba 8a 4c 42 f1 8b 3f 0a 70 60 16 3b 44 e9 3f
       0.013643758736489896 0.7895789563222035
0002c0 65 cc c1 74 18 9b b0 bf 15 3d ec c8 f0 a5 da bf
       -0.0648665700007754 -0.4163782083641803
0002d0 a2 60 f3 16 3d d1 cb bf 66 d0 80 d7 5f 2e e8 bf
       -0.21732295628203696 -0.755660935310982
0002e0 6a f3 8c 81 5a c4 ea bf 7a 53 35 29 7f 90 b2 bf
       -0.8364689379010148 -0.07251734500944265
0002f0 70 21 39 6b a8 6e 77 3f b3 8b a0 81 5d e7 c1 bf
       0.005720765958877258 -0.1398732073731402
000300 cb 85 f5 53 79 e7 d6 3f 61 72 5f e9 e7 13 a5 3f
       0.3578780479348011 0.04116749500073947
000310 7d ff 6f ca 08 c9 c0 bf f9 f9 91 ab f4 23 95 3f
       -0.13113508114474462 0.020644972774329393
000320 f4 66 c4 b3 78 d6 7e 3f 54 25 fc f7 76 3e a0 3f
       0.007528754704503749 0.03172656800422638
000330 c2 21 23 c3 53 92 91 3f 86 3f 7d f0 21 e7 98 3f
       0.01715975645564228 0.02431920080499552
000340 90 4c c2 2d be 0c 7f bf b5 50 96 e2 a6 b2 b2 3f
       -0.007580511937834392 0.07303851158059411
000350 39 37 77 23 fe d7 b6 3f 98 e3 eb 09 cc c1 d1 bf
       0.08923328748570904 -0.2774534317864492
000360 1f 6c 3f 52 70 0c 9c 3f cf e3 48 ee b4 25 bf bf
       0.027391200084689978 -0.12166910951135822
000370 60 5c e5 90 8d 47 b4 3f 33 83 03 bc 56 86 a2 3f
       0.07921681201456598 0.036181173754590644
000380 bd e1 55 73 76 da a7 3f af b1 dd 42 fd 79 9b 3f
       0.046588613108670775 0.026832539755035686
000390 20 c5 ea 8a 63 dd b6 bf 6f ce 3e 38 08 56 b1 3f
       -0.08931562558679618 0.06771899579217132
0003a0 90 b0 09 2f 7d 01 89 3f 51 44 82 8a de 98 a4 bf
       0.01220987129018905 -0.04022880020887299
0003b0 a1 4e cb 85 fb 0d c0 bf 02 d0 4c 03 c1 13 c0 bf
       -0.125426712350067 -0.12560284291396334
0003c0 1c 09 61 33 e4 47 be 3f ca 17 e0 8c 80 20 bc bf
       0.11828447584506246 -0.10987094344463269
0003d0 1c 3f a7 b8 b8 54 a8 bf 7b ef da 40 d5 11 91 3f
       -0.047521374264418464 0.016669590075920376
0003e0 61 05 e6 27 15 53 97 3f be 40 bf a4 d6 d4 ad 3f
       0.022777872619831444 0.058264453516700496
0003f0 19 14 0d 96 c1 ca ea bf cc b3 72 6c 38 a7 9b bf
       -0.8372505121884642 -0.0270050827208939
000400 6a 10 11 be a6 31 c7 3f 86 db ea f8 98 dd 83 bf
       0.18120273857687447 -0.009700007530552456
000410 c1 f2 fd a7 7a 69 9b 3f 4a fd 3d 3e fc d8 93 bf
       0.026769558432976796 -0.019382420824965586
000420 e5 78 f2 99 8f bc ac 3f a5 94 04 1d 36 9c 9d 3f
       0.05612610582578429 0.028916211625205652
000430 a7 70 b4 eb 56 d8 84 3f 80 11 95 5f 90 b3 8f 3f
       0.010178259914532651 0.015479209820690398
000440 c8 2f aa dd c9 22 b7 3f e0 6a 6e b7 a0 d3 9c bf
       0.09037458097208095 -0.028151045985945866
000450 b5 85 f5 0b 3c e7 d0 3f 7c dc 57 9a 92 df c1 3f
       0.2641134373462493 0.13963539634980637
000460 82 ff 6f ea a8 8f c0 bf 19 fd c8 15 c7 f6 a1 3f
       -0.12938415000098408 0.03508588925296347
000470 20 73 87 69 3e 1d a8 bf 35 25 fc f7 85 d1 a8 3f
       -0.047098112470598474 0.04847353603515573
000480 97 37 37 5f ed e9 be bf de 80 05 1f ae 6c 80 bf
       -0.12075694632150512 -0.008019790956212022
000490 81 49 b8 c5 6b 2b ae bf dd ae 69 bd 3c 96 b4 bf
       -0.058925025830961715 -0.08041743873917136
0004a0 a6 9b bb 11 c1 50 c0 3f 8d e3 eb d9 b4 24 da bf
       0.12746442190038215 -0.4084903839243957
0004b0 83 ed 47 0a 15 02 c3 3f ac e3 48 4e cc bf b2 bf
       0.1485010433387793 -0.07323910628555436
0004c0 6c 5c e5 90 0a f8 b1 3f 21 83 03 9c ca 57 a0 3f
       0.07019105947016308 0.03191979555572844
0004d0 4a 1e aa 0c ae dc a0 bf 6d b1 dd 42 eb 2d 98 3f
       -0.032933653875315175 0.023612667041946468
0004e0 45 75 2a aa 7f 02 a5 3f 21 9d 7d 30 e4 a0 a7 3f
       0.04103468849391815 0.04614937869956238
0004f0 14 ca 1e 7a de 07 be bf 20 22 41 45 d2 61 bb bf
       -0.11730757218791893 -0.10696138563901814
000500 e2 8c a5 d1 f6 46 9c 3f ba 80 99 e5 2c 92 9f 3f
       0.027614456697290353 0.030831052316330633
000510 8f 84 b0 59 31 97 c8 3f 0d 0c 70 d6 03 e6 c9 bf
       0.19211403731700158 -0.20233200045194658
000520 23 82 b1 0e 6f 81 97 3f 0b f0 5d 1b 98 82 49 3f
       0.02295468833142612 0.0007785074910624535
000530 3d 3f 03 5b ca 38 c6 bf dd 80 7e c9 7c 6a 9f 3f
       -0.1736081070325727 0.030679654882647667
000540 18 14 0d 34 ec 96 ea bf c0 56 8e 2d 52 57 c8 bf
       -0.8309231773970422 -0.19016482567228898
000550 50 88 08 07 94 6b d1 3f 0a 6e ab e3 3b ff 66 bf
       0.272191054218756 -0.002807251902920309
000560 45 83 00 16 f1 66 b0 bf 26 2a 20 1c 3c d7 51 3f
       -0.06407076632650639 0.0010889136324318065
000570 bc c3 06 f3 8a 7a ba bf a8 b5 7d f1 d8 da a2 bf
       -0.10343235429060277 -0.03682592342270691
000580 d8 e3 12 45 22 42 a8 bf 83 bb 1a e8 14 32 a2 bf
       -0.04737956135927107 -0.03553834279352144
000590 52 d0 55 e2 5a c7 b6 bf 8b 2a 23 91 14 17 85 3f
       -0.0889794161392399 0.010297928504219974
0005a0 1c fb 83 0d 29 28 d7 bf 14 d3 11 53 53 1f d1 bf
       -0.36182619399908034 -0.26753695595043436
0005b0 28 31 48 1a 31 e8 e5 bf e0 8c 8c 97 e0 bb d6 3f
       -0.6845937264747919 0.3552171211214965
0005c0 86 9e f0 e5 1f 07 d7 3f 0b ea d9 80 1d 57 c5 3f
       0.3598098512179394 0.16672104636730042
0005d0 44 51 a3 45 79 92 e1 3f bc dc bc 6b 3b 53 96 3f
       0.5491300926319487 0.021801880312719332
0005e0 f8 b0 e5 94 35 1d c9 3f ca 81 a0 49 e7 d6 e4 3f
       0.19620389719364772 0.6512333333994829
0005f0 5f 77 5b 42 12 ef cf 3f be a5 e5 ba 65 0b cb bf
       0.2494833778391081 -0.2112853205283453
000600 d0 51 42 75 1f f7 a0 3f 63 e6 aa 96 95 df 63 bf
       0.033135397971964076 -0.002425949254157443
000610 f5 24 fd 96 0d cc b0 bf 68 38 01 fc 16 c4 b9 bf
       -0.06561360298396209 -0.10064834263286715
000620 11 be 26 09 de a7 a6 bf 43 aa ce 54 11 3d 7f 3f
       -0.04424947606764474 0.007626598072344284
000630 d0 18 06 92 7b 72 82 3f 54 f9 12 3c ac 8f b5 3f
       0.009007420915406433 0.08422352282193418
000640 5a 03 ba 1e d0 7b a9 3f 34 9f 3d 15 a8 86 a0 bf
       0.049772742987449006 -0.03227734813009278
000650 16 5e a3 b0 5a 30 81 bf c4 62 f0 d9 86 7b 30 3f
       -0.00839300967747562 0.0002515033938279949
000660 d6 12 86 12 e7 a0 c4 3f 6d dc 38 39 f0 fe cf bf
       0.16116035847166782 -0.2499676017193652
000670 66 de 9f ee a2 ab d0 3f 3d 3c 32 75 44 b5 b6 bf
       0.2604758577649363 -0.08870342122303128
000680 fe 3d 91 20 c3 ec 94 bf 47 de 4f 74 48 0b ab 3f
       -0.020434426176789693 0.05282045764755288
000690 ee 7f 60 0d 4c 35 de bf 2c 71 41 19 d1 67 9d 3f
       -0.47200299555151914 0.028716342131120218
0006a0 e1 b3 ac a4 94 01 db 3f 07 3f 40 ce 46 0e d1 3f
       0.42197147447114786 0.2664963735742138
0006b0 b4 99 28 2f 73 0b b4 bf 6e 23 76 45 89 a6 85 bf
       -0.07829971219380277 -0.010571548874183736
0006c0 c8 07 14 5e bc 71 a4 3f 83 3a e1 6f c2 2b b7 bf
       0.03993023537078916 -0.09051146727981955
0006d0 9d 7f a7 55 9e 6c b8 3f a9 a5 88 6d c8 c1 ed bf
       0.09540738669556821 -0.9299051417667005
0006e0 6d 4d d0 17 9b 15 da bf fa 0c 64 08 00 b0 e3 bf
       -0.40756871533922984 -0.6152343906291258
0006f0 2a 40 11 df 04 4b b5 3f 30 c9 b7 f9 e7 43 9e 3f
       0.0831759495351895 0.029555916420528294
000700 6a 59 61 26 0f 80 b0 bf de f2 54 b1 60 00 77 3f
       -0.06445402800577474 0.005615594583386422
000710 b9 09 ca 8e 6c 2d 88 bf 2c 55 41 6c cf c9 a1 bf
       -0.011805389506894014 -0.034742814984080134
000720 7a 8a f6 e9 ba c7 ad 3f 93 9b d9 c7 f0 2e a5 bf
       0.05816444498056668 -0.04137375297141612
000730 c5 76 26 06 3f d1 89 3f d1 81 a0 f1 6b e8 e3 3f
       0.012606136679831246 0.6221217841412515
000740 64 77 5b 22 ce 4a cf 3f d8 a5 e5 02 e0 83 c4 bf
       0.2444703738937576 -0.1602745069642839
000750 cf 51 42 35 11 26 a0 3f 4d a3 2a cd 67 d4 91 3f
       0.031540429831838794 0.017411825082180688
000760 4d b6 05 32 a8 60 af 3f 6c 38 01 7c ca f6 be bf
       0.06128430948852479 -0.12095323111972939
000770 ce c2 d7 24 a1 73 5e bf 80 2a 66 d5 32 15 ae bf
       -0.0018586229010645774 -0.05875548224419891
000780 22 c3 40 32 19 79 bf 3f 8a cb 97 e0 ac 97 8e 3f
       0.12294156529311498 0.014937735179932483
000790 d3 80 ae 57 f8 33 c2 3f a8 7c f6 54 ce 53 85 bf
       0.1422110012181351 -0.010413753478870483
0007a0 5a 94 eb a9 a1 be be 3f 2c 7d 30 c9 db 9b 86 bf
       0.12009630583232092 -0.011039464070619141
0007b0 81 09 43 09 59 37 d5 3f 7b dc 38 39 83 d1 c1 bf
       0.33150316147307285 -0.13920631689117954
0007c0 be bc 3f 3d fe 3b ca 3f 33 3c 32 75 72 76 be bf
       0.20495584479019685 -0.11899485932575331
0007d0 6e 84 dd be cc e4 8e 3f ed 10 d8 45 82 2f b3 bf
       0.015084838461634411 -0.0749436779515837
0007e0 ed 7f 60 2d 88 bd de bf 08 d2 d7 fc 94 d0 c4 bf
       -0.48031811171858757 -0.162615416964073
0007f0 ef b3 ac 64 2f af d6 3f 36 fc 00 19 cb 4e bc 3f
       0.3544424517775146 0.11057729111142653

res_blocks.0.conv1.bias f8 [3]
000000 ca a3 31 4a 2a a6 d1 bf 5a 3b 11 fb 0d 53 e2 bf
       -0.27576691861628133 -0.5726385024698672
000010 e7 f8 3f ae 38 68 bc bf
       -0.11096529249332186

res_blocks.0.conv2.weight f8 [3, 3, 3]
000000 60 08 63 0e 00 77 f0 3f 97 06 b5 ec d8 5d f2 3f
       1.0290527879701798 1.1479119535801254
000010 90 6c a9 e2 b6 3c f5 3f d2 34 3a 6d 73 98 e2 3f
       1.3273228506066381 0.5811097272250214
000020 c8 04 d6 e4 09 e6 e4 3f ea df de 97 58 d5 e9 3f
       0.6530808896497087 0.807293221113466
000030 eb ec 7f f4 be 29 f3 bf 33 37 68 33 2c ee f6 bf
       -1.1976918745775105 -1.433147621926264
000040 81 50 16 bc 94 13 f8 bf a9 7b 5d 37 8c 99 a4 3f
       -1.5047805163531225 0.040233976133769396
000050 d5 14 a1 be da 57 da bf 31 06 81 73 80 a8 9e 3f
       -0.41161221138129395 0.02993965821247552
000060 6f 3e 79 38 1d da f9 bf b0 90 c6 d0 0f c0 fc bf
       -1.6157505231857632 -1.796890082864632
000070 ee bd 4d ab f7 84 ef bf 67 9b b5 47 0d 9b cb 3f
       -0.9849813791060436 0.21566930772243184
000080 ee 7c 12 79 a6 39 c2 3f 96 8d 5f 67 5a 70 be 3f
       0.14238434707383568 0.11890187286149109
000090 4d 1c a1 97 0a c1 d3 bf d5 bf 68 b6 d0 db b5 3f
       -0.30865731055786655 0.0853853650412469
0000a0 69 75 fd 89 39 f2 d5 bf 0d e7 fc a9 fb 0e b5 3f
       -0.34290922618477865 0.08225987339110592
0000b0 0f 56 af e5 ca 00 cb bf 76 39 67 0f 02 dc b2 bf
       -0.21096168723185868 -0.0736695563893813
0000c0 00 be 59 bf de 83 c9 bf f5 8b ea 3e bf 26 d2 bf
       -0.19933685630120124 -0.283614932481384
0000d0 e4 b6 ed c0 91 4a 7e 3f
       0.0073953336239875635

res_blocks.0.conv2.bias f8 [3]
000000 86 62 a8 85 fa 64 14 3f 2f c0 49 d5 f3 68 75 bf
       7.779864373736776e-05 -0.005227043603198963
000010 6c 12 f7 84 c8 03 c1 bf
       -0.13292795650899636

res_blocks.0.conv3.weight f8 [3, 31, 1]
000000 15 af 33 e6 64 f4 c3 3f 1d a1 a4 87 a3 e0 00 c0
       0.15589581718756365 -2.1096869084468737
000010 c5 af 4d 61 99 0d c0 3f 65 17 92 f3 b3 bc 76 bf
       0.12541501284738224 -0.005551054892867534
000020 66 71 fe 9c f2 e7 bf 3f bc f2 5f 1c ca 79 b6 3f
       0.12463299115046808 0.08779586022132951
000030 57 5a d4 0f 60 c9 88 bf a2 e5 7f af 33 ee 9c bf
       -0.012102842791631803 -0.028252418123860708
000040 13 0b c2 11 e0 f1 c8 bf a3 f8 bd c9 21 58 c0 3f
       -0.1948814474781889 0.1276895747250296
000050 16 e6 a8 7f e3 4c b0 bf 9d 80 90 70 0a 51 d6 bf
       -0.0636732279462183 -0.348696336675866
000060 17 ed 8b a1 61 24 c1 bf 37 bf 21 e2 3d d4 a6 bf
       -0.13392277133957783 -0.04458802590749971
000070 13 02 30 4d d9 cf 97 bf 1c a1 a4 bb 9a 78 01 c0
       -0.02325381787886911 -2.183888879739369
000080 aa a0 64 1d 3a 49 b8 bf e1 bc 8d 81 7b f1 ad 3f
       -0.0948673555145684 0.058482989849716345
000090 4f c7 80 d1 9b 9d c0 bf ad 06 d0 11 9a 27 c2 bf
       -0.12980983476296123 -0.14183355207210493
0000a0 70 16 f5 03 15 2f ae bf 64 0d 40 28 a4 6e a4 3f
       -0.058952957852437815 0.03990662566504957
0000b0 35 d4 f7 38 f1 ab a0 3f 7f 0e 84 6c 7d f7 bb bf
       0.03256181545649676 -0.10924514674484874
0000c0 e8 19 57 c0 a4 20 b9 3f a2 80 90 90 84 81 d6 bf
       0.09815435119444482 -0.3516551410448391
0000d0 a3 f6 c5 20 1c 1d d7 bf 58 20 ef 4e 9b 49 b4 3f
       -0.361151725773974 0.07924814869977703
0000e0 fa fe 67 59 b0 de a2 3f f3 94 1e 82 cf 17 ef 3f
       0.036855231202933283 0.9716565648456296
0000f0 29 3f 69 d5 cf 7d c6 3f b1 64 ac dc a4 77 ac 3f
       0.17571447296585888 0.05560031121985654
000100 ab 02 a0 16 4f 46 e1 3f 6f d1 31 6d 02 21 9f bf
       0.5398326341529204 -0.030399358668050377
000110 73 28 e0 1e 57 73 a5 3f ef 2e 09 3c 8f 13 c6 3f
       0.04189560176753639 0.1724719088691624
000120 c5 16 24 8e 8a f4 a5 bf 02 c3 75 83 e4 1e 7c 3f
       -0.04288132653350155 0.006865399008675112
000130 8f 78 72 a2 ae 8c ae 3f 7d 33 9a b7 d0 82 c1 3f
       0.05966706974980795 0.13680466618498235
000140 51 90 fd 2c 16 5c 75 bf dd 63 50 08 76 fe 8a 3f
       -0.005214773773193641 0.013180658463214751
000150 16 a2 b0 6d 2d 81 b0 3f e2 b1 44 c9 28 f6 ca bf
       0.06447109153726446 -0.210637186313206
000160 99 d5 5a d1 86 dd b7 3f 63 18 df 4d f1 be b0 3f
       0.0932239781494303 0.06541355277212939
000170 a8 02 a0 4e ee 6b e1 3f 48 17 67 c9 ee fe a0 3f
       0.5444251571317027 0.03319498261002579
000180 e3 f0 fa 23 6c 3e 50 bf 06 a2 ed c7 df e2 b9 bf
       -0.0009914451656376992 -0.10111807471333387
000190 d8 f4 ed 78 f6 e3 b1 3f f4 51 e4 bb 9c 91 c1 bf
       0.06988468601589959 -0.13725623297126754
0001a0 7c 87 8d dd b8 28 aa bf 91 cc 65 08 07 28 c6 bf
       -0.051091935200715505 -0.17309654150048862
0001b0 22 64 3f 8b 5b bc 92 bf 8f 0c 0a c1 75 3f b0 3f
       -0.018296652196884484 0.06346832239983001
0001c0 17 a2 b0 6d ed 6d b0 3f 0c 59 a2 f4 a0 7b de bf
       0.06417735984781135 -0.47629569902473246
0001d0 91 2a a5 2e 7d cc b0 bf 8c cf 41 64 71 37 a8 bf
       -0.06562025440977438 -0.047297996033108
0001e0 77 78 aa 69 76 14 98 bf 03 b4 e6 6e 17 1c ec bf
       -0.02351555843289829 -0.8784291425741916
0001f0 85 59 59 4a 24 d3 b8 bf 7a 66 76 65 7d 3d ea 3f
       -0.09697176757013011 0.820006082695911
000200 74 5f a3 1e ac 9b c0 3f e4 3a 23 63 a1 39 bc 3f
       0.12975074287418986 0.1102543704066466
000210 43 2e e0 3c bb 1d b7 bf b8 7c 44 18 7b c4 61 bf
       -0.09029741512511529 -0.0021688846774306735
000220 43 3b bf 54 15 74 9b 3f 42 ca 67 e2 05 2e be bf
       0.026810010240122095 -0.11788975503422086
000230 6d 0b 60 33 f9 b9 a4 3f 92 1b 6b 70 a6 76 bd bf
       0.04048136474741324 -0.11509170765485369
000240 61 75 4a 33 a7 3d ab 3f b8 7e 37 a1 a3 60 bb 3f
       0.05320475102528622 0.10694334684330442
000250 e8 7f 42 cb ea 82 d9 bf ae 50 76 43 8e 97 6e bf
       -0.39861554956041667 -0.0037343767723517418
000260 74 50 c1 ca dd 61 b4 3f 88 66 76 ad 8a fb e4 3f
       0.07961832237316618 0.65570577506442
000270 7a 41 b9 82 49 d2 bc bf 1b c5 dc dc 41 8b b7 bf
       -0.11258372727866642 -0.0919686474051286
000280 9c e4 02 ce 11 ba 7f bf 28 82 bb e7 54 c4 6f 3f
       -0.007745809125645622 0.0038777979187758667
000290 59 31 d0 aa 4a b9 b6 bf 17 1b cc 8e 6f 33 c1 3f
       -0.08876482649083552 0.13438219521068426
0002a0 80 f4 9f 4c c1 a3 a3 bf 70 e4 94 cf 49 42 bd 3f
       -0.03835872707711818 0.11429272954855363
0002b0 a7 15 6b 99 e8 5e 91 bf 69 df 4d f8 9f ef d3 3f
       -0.016963610042486057 0.31150054214912487
0002c0 e2 7f 42 83 9a 8f dd bf 03 9b c8 9b c9 3e aa 3f
       -0.46188986605011284 0.051260280863337136
0002d0 a7 af 3e f5 0d 8a ba bf ef 9c 6e 0b 99 42 c6 3f
       -0.10366904485152749 0.17390740450102934
0002e0 1b d5 c7 70 a7 55 dd 3f
       0.4583529092190745

res_blocks.0.conv3.bias f8 [3]
000000 5c 53 d7 50 1b ba be 3f 42 f7 5e bc d0 67 d4 3f
       0.12002726291332294 0.3188363875923309
000010 28 1c ab 62 f2 58 bc 3f
       0.11073222073456235

res_blocks.1.conv1.weight f8 [3, 3, 3]
000000 04 1a 42 f9 1b 00 d6 3f 27 6a e1 83 84 d0 d1 bf
       0.3437566694414331 -0.27835190657575243
000010 de 67 4d 82 ed b4 d2 3f 9f 42 3b b9 50 8a bc 3f
       0.2922929546817822 0.11148552438977298
000020 86 b4 0f fc c6 b2 c0 3f 7e 21 e6 30 f7 d7 c7 3f
       0.130455849720793 0.18627824676174137
000030 0c dd 7d 58 54 88 c0 bf 2a 30 b9 c0 70 b4 aa bf
       -0.12916044541245986 -0.05215790131168803
000040 c3 4f 54 66 ad a8 af bf 08 5a 33 27 7d b6 bf 3f
       -0.06183378099572636 0.12387830931707111
000050 0c f2 8c e5 75 97 d5 3f 34 ed 08 5a 05 77 c8 bf
       0.3373694173531312 -0.19113222976907596
000060 85 0e c9 32 51 0b bf 3f 06 99 e5 0d 4b 87 bf bf
       0.12126643648030651 -0.12315816010741196
000070 3e 3f ce 97 b0 52 b7 bf d6 91 05 5b f1 50 c3 bf
       -0.09110549646561325 -0.15090767807409006
000080 08 66 92 46 b3 b9 bc bf 9a b4 dc 55 94 73 ac 3f
       -0.11220856163927106 0.055569301110474714
000090 46 0b de ef 03 78 ba 3f 84 56 db be 73 c9 b1 bf
       0.10339378934990603 -0.06948016557302067
0000a0 b0 81 b0 50 9b 09 a2 3f fa c4 cb 3c 74 09 b1 bf
       0.035229543304242994 -0.06655050739552229
0000b0 1e 7a e2 2e 32 b7 b8 bf d2 d8 2c ed 67 1c c8 bf
       -0.09654534954686553 -0.18836688118762496
0000c0 9f e3 fa 82 5f 64 cd 3f eb 45 c6 69 e2 c9 d5 bf
       0.22962564368733937 -0.3404470475153107
0000d0 04 a4 1a 8a 2b f6 b0 bf
       -0.06625625726395873

res_blocks.1.conv1.bias f8 [3]
000000 5e 22 04 b0 1c d9 d0 bf 22 9a bc 54 4b a1 cd bf
       -0.2632514685542783 -0.23148481023345463
000010 4c bc d6 e9 25 b1 b9 3f
       0.10035931548075999

res_blocks.1.conv2.weight f8 [3, 3, 3]
000000 59 0a 60 29 0b 36 2a bf c1 ae 53 c1 20 ec c4 bf
       -0.0001999748826052191 -0.1634560531596119
000010 d5 c7 c8 36 de d8 c2 3f f8 52 98 31 7f d5 aa 3f
       0.14724328684820756 0.052410101703719236
000020 b0 70 ac d7 de fc b9 bf af 20 2e 5c 4b b3 bb 3f
       -0.10151474729031196 0.10820456505291774
000030 1d 03 0e 65 77 d1 d4 bf 5d d3 2f 11 4f 51 d3 bf
       -0.32528481358171907 -0.30183769873047145
000040 71 9f 12 70 d2 94 b7 bf 01 1e 4a a8 bd 21 b4 3f
       -0.09211459385062228 0.07863984449988239
000050 44 df 75 49 fa 70 cd bf 22 03 33 71 f3 b9 b0 3f
       -0.23001030528006983 0.06533738626150101
000060 33 bc 9f 85 59 01 9a 3f 4a 7a 82 1d cc 6e ae 3f
       0.025395773678550348 0.05943906650758331
000070 bc 79 ae 43 4b cb b0 bf dc 80 eb c3 90 71 c6 bf
       -0.06560202028638334 -0.17534074369814945
000080 64 4d 7b 50 8b 27 d0 bf d8 28 17 2a 97 8f d7 bf
       -0.25241358623062227 -0.3681390677489964
000090 00 00 00 c0 2d 59 c7 bf 00 00 00 00 37 aa c0 bf
       -0.18240901827812195 -0.1301945447921753
0000a0 00 00 00 00 19 3c c3 3f d4 1b c1 03 96 db a2 bf
       0.15027153491973877 -0.03683155818776354
0000b0 31 b9 06 5b f4 1f bc 3f 79 7d c4 7a c8 38 c1 bf
       0.10986258718796617 -0.13454538340100067
0000c0 6f 46 aa 22 3d 4d 9a bf 94 69 3a 49 e2 54 d3 bf
       -0.025685267678062503 -0.302055903922928
0000d0 54 d3 d7 10 99 13 37 3f
       0.0003521202750953929

res_blocks.1.conv2.bias f8 [3]
000000 91 73 91 da 79 70 c9 bf ea 2c f1 01 0c ef c4 bf
       -0.1987449948527709 -0.16354513258770648
000010 ae 6f 8d 0d 71 c8 d7 bf
       -0.371608985171174

res_blocks.2.conv1.weight f8 [3, 3, 3]
000000 c7 bf 3e 44 6f 36 b2 3f 49 9e d1 b8 0d 3f c7 3f
       0.07114310661449884 0.1816117432056095
000010 c2 1a 2a b4 f3 86 b3 bf 44 52 c8 e4 3f 58 d2 3f
       -0.07627795361086512 0.28663632719079524
000020 76 46 cf c9 69 41 bd 3f 49 fc 35 02 fd 8d d5 3f
       0.11427937676423902 0.3367912789908059
000030 d4 71 68 ed 70 e7 b6 bf 1f 8d 4f 40 8e fa c2 bf
       -0.08946901126950674 -0.1482713521973915
000040 4b 15 ae 49 b9 a9 85 bf 0e 1f a9 0f dd b6 cc 3f
       -0.010577628670726332 0.2243305517642899
000050 e4 40 68 ba 27 b0 b5 bf b8 7a 67 9f 37 81 d8 bf
       -0.08471916485746395 -0.3828867966348457
000060 c0 85 a8 3e 8b 4d c6 bf 80 ec a7 d4 69 bd c1 3f
       -0.17424145278441294 0.1385929382666724
000070 e0 f4 ad f4 3b 8b 83 bf 7f b8 0b 6b 6a 5b e9 3f
       -0.009542911915327357 0.7924091425645797
000080 d7 fb ca 48 21 ca e0 3f 69 e8 2c 3e b7 ed e2 3f
       0.5246740743385726 0.591518041073198
000090 6e f8 fb 69 14 26 bf bf f2 0a b2 0f fe 42 b0 bf
       -0.12167480075365386 -0.06352222331228655
0000a0 1f 28 3b cd 5b 7d c7 3f 35 86 b0 9a 2c c2 96 bf
       0.18351314087914347 -0.022225090924740527
0000b0 85 bc 32 7e 0b b9 d2 bf 5b 24 12 65 af 5a c8 3f
       -0.2925442440418425 0.19026749072171154
0000c0 75 2f 5f d1 1c 79 d8 3f af 29 f4 74 7b de d5 3f
       0.38239212461916533 0.34170423909440734
0000d0 7f da d0 92 3b 36 cb bf
       -0.21259255093328375

res_blocks.2.conv1.bias f8 [3]
000000 92 c5 bd 25 d9 95 8d bf 6b 2a 45 68 45 1d bc bf
       -0.014445969070694873 -0.10982164188059478
000010 a0 40 2f 42 e7 bb c7 bf
       -0.18542185527485788

res_blocks.2.conv2.weight f8 [3, 3, 3]
000000 2d ed 05 c9 4a 67 c0 3f 2b 1e 44 ca ab 51 d2 bf
       0.1281522256430007 -0.2862348056082477
000010 c8 46 93 50 1d 7a d0 3f 52 65 d9 d9 7b 18 cd 3f
       0.25745327824288866 0.22730968606155472
000020 9c 6f 4d 4c 62 e3 c7 bf af 66 88 36 cf 00 ca 3f
       -0.18662670827586403 0.2031497017167587
000030 da ff 7d ce 69 1a e5 3f a5 2a f2 d9 b2 69 a8 3f
       0.6594742806482785 0.04768141661141571
000040 ea 86 3f 6e 2b 38 c4 bf 9b 89 b2 41 29 e1 a8 3f
       -0.15796416171274724 0.04859284331293453
000050 c2 e0 69 ab 46 59 ac bf 9d e8 23 fa 8f 3d ca bf
       -0.05536862223101614 -0.20500373567467003
000060 99 41 54 74 7f c5 d2 bf e9 1b 77 78 17 46 bb bf
       -0.293304313280737 -0.1065382641892111
000070 64 99 ab a9 ce d7 b4 bf be cb 3e 4e 29 f7 c9 3f
       -0.08141795770970855 0.202855265813552
000080 35 90 44 a8 c4 11 9d 3f cd 9d 1b 17 22 f1 cf bf
       0.028388092775586144 -0.2495463002044133
000090 2a e7 93 63 22 90 bc 3f 95 88 28 18 e5 93 d0 bf
       0.11157431536767307 -0.25902678832256615
0000a0 c4 0f 4e 69 b6 6b d5 bf c6 6e d9 91 c2 39 f2 3f
       -0.3346992519730032 1.1391015717735384
0000b0 ea 91 34 6f cd 34 df 3f 4d 0a 87 5d ed 44 a0 bf
       0.48759780750177006 -0.031775872866565004
0000c0 f3 4e 10 cb 3b 37 f6 bf 50 09 fd cb 11 98 d0 bf
       -1.388484757630917 -0.25928158684486835
0000d0 fe f0 5e 69 bb d1 f4 3f
       1.3012041202592282

res_blocks.2.conv2.bias f8 [3]
000000 ba 22 1e 88 63 93 b0 bf 27 8a 8d 1a f0 6d d4 bf
       -0.06474897454439602 -0.3192100772195396
000010 cb 4b 54 18 d6 d4 41 bf
       -0.0005441708932799547

res_blocks.3.conv1.weight f8 [3, 3, 3]
000000 f0 3c df 5a c0 db c3 bf ed 5b bb b0 68 19 a9 bf
       -0.15514378010855223 -0.04902197987910726
000010 0e b4 97 30 bb b2 c4 3f 6f b5 a6 47 4c f6 c9 3f
       0.16170444367108455 0.20282891748994866
000020 86 b6 46 b2 d4 3b d2 bf a4 ad 03 c0 47 e7 a0 3f
       -0.28490178499019014 0.03301452845502276
000030 5d 1e eb 8a cb 52 82 3f 03 a3 56 b4 90 82 c6 3f
       0.008946981598810294 0.17585953527056838
000040 b6 d2 a2 15 eb 58 bc bf 96 1c 1b dc d6 ea d4 bf
       -0.11073178556655247 -0.3268334531280258
000050 79 d5 0f bc 34 a2 c6 3f 7d 6e 37 9a 5f d8 bc 3f
       0.1768251341124303 0.11267659678508753
000060 1e 67 2b d3 ca ac b7 bf 7d 40 32 1a 27 08 cd bf
       -0.09248035102373506 -0.22681130198589364
000070 e3 8c 8c b7 3f d7 cd bf 12 11 4d fa ca b3 d2 bf
       -0.23313137495379185 -0.2922236866327391
000080 e5 4c ea 72 bb 11 aa bf f5 4c 63 ae 72 15 d0 bf
       -0.05091653611921191 -0.2513090804106491
000090 e7 c6 94 6d f7 c7 d0 3f 0a 90 d5 1d f1 82 af bf
       0.26220498753819615 -0.06154588212191932
0000a0 a1 ed b1 c5 4a 54 c1 3f ef 97 6e 12 d6 b3 ce 3f
       0.13538489010884994 0.23986316585541043
0000b0 85 64 52 21 15 c8 b8 bf 64 d6 3c 38 8f 79 c7 3f
       -0.0968030172683872 0.18339720006922555
0000c0 d2 5d 6e ff e0 e5 bb bf 62 d6 69 42 75 cc b7 3f
       -0.10897642360793405 0.09296353217526979
0000d0 63 24 45 19 c7 10 be bf
       -0.1174435078329608

res_blocks.3.conv1.bias f8 [3]
000000 f3 d0 c0 3a 6b 14 d3 3f 9b e8 7e d5 6a bc d0 3f
       0.2981212686311345 0.261500080577784
000010 9a 8d 35 87 ee 5b 98 3f
       0.023788191797746806

res_blocks.3.conv2.weight f8 [3, 3, 3]
000000 51 be de 57 28 bf d2 bf fc 13 53 2e ce 74 a7 bf
       -0.2929173334223139 -0.0458130294369212
000010 ae 40 29 36 e9 93 d6 bf b5 bf 2d 05 91 4e 7d 3f
       -0.352777769939176 0.007155004964133062
000020 c1 a0 4c 18 3f 17 b1 bf f4 28 26 54 80 02 ab bf
       -0.06676096289868651 -0.052753458282568305
000030 c2 6b 57 4a 25 e3 8e 3f a0 30 9a 42 81 c5 c3 bf
       0.015081683474752586 -0.15446487190309188
000040 21 e0 ad 8e 08 77 c1 3f d8 c6 f2 88 6d 62 d2 bf
       0.1364451119113719 -0.28725756048070883
000050 da cb fc a6 a6 55 92 3f 54 50 7a 2d 92 45 c9 bf
       0.017904857580287238 -0.19743563862414482
000060 a7 b5 ad 14 47 e3 d6 bf 04 02 f2 ff b0 45 d2 bf
       -0.35762192744626947 -0.2855036258188479
000070 54 9e e5 2a 4d 2b c3 bf d8 c0 e9 03 6e eb 90 3f
       -0.14975895495011804 0.016523093212925527
000080 70 97 d8 9f b8 34 c8 3f bc c1 d5 d1 c1 8c 8a 3f
       0.18910892300589977 0.012963785377650854
000090 c3 fe 3b cb 9e 87 cc bf e2 37 eb d2 7a d3 d0 bf
       -0.2228888027529959 -0.2629077014688602
0000a0 ab 6f dd cd 29 59 be bf f5 8e ac 92 9e 31 a4 bf
       -0.1185480239486753 -0.03944106617407598
0000b0 1a d3 5f 1c 0e cd d9 bf bc 4e 41 b4 13 31 b8 bf
       -0.40314057131699743 -0.09449885512122597
0000c0 1d 0b 80 37 59 a0 ce bf 79 3c 1e d8 db e2 cc bf
       -0.23926844797105043 -0.22567318012849905
0000d0 b4 0d c2 4b d0 e3 c6 3f
       0.17882732104417942

res_blocks.3.conv2.bias f8 [3]
000000 be c3 6b b3 25 cf bd bf 6c 9e d1 b4 35 c5 79 3f
       -0.11644206648249075 0.006291589536978042
000010 f1 a1 ff 1a a1 9e 4b bf
       -0.0008428846977013832

res_blocks.4.conv1.weight f8 [3, 3, 3]
000000 a4 92 b4 b5 13 f7 cf bf f9 a0 eb 68 d0 28 c0 bf
       -0.2497276913865295 -0.12624554751460673
000010 11 9d 09 3d b2 7c b4 3f 7b 02 26 69 ef c5 d0 3f
       0.08002771368193275 0.26208100574880405
000020 a4 b2 88 b9 db 4c d0 3f de c8 24 87 64 34 cf 3f
       0.2546910583358033 0.24378639792263973
000030 38 2e c3 c7 a8 27 d0 3f 19 84 7f fa 69 c4 b9 3f
       0.2524206114582941 0.10065328946758746
000040 cf 19 24 7f 39 36 d4 3f 66 24 a7 38 07 53 c4 3f
       0.31580960670580976 0.1587838198304638
000050 95 a8 f6 f4 6a bd ae bf 9c 6d f7 39 9f f1 64 3f
       -0.06003889313008518 0.002556620587467596
000060 70 97 dc af 24 08 97 bf 87 91 48 1d 26 e8 b1 bf
       -0.02249200175642535 -0.06994856085709077
000070 32 40 52 80 2f b6 cd bf 99 b5 f2 0b 84 d5 d2 bf
       -0.23212236180961693 -0.29428197066121126
000080 4f 68 35 c1 99 5b 7e bf 5a 8e 23 53 0b e0 a3 bf
       -0.007411575893764135 -0.038818696879187
000090 56 05 d0 4b ec 74 83 bf 54 9e c0 bf 9d d2 d3 bf
       -0.00950035673486364 -0.3097299931127726
0000a0 3d 55 48 ee ac 8d 87 3f 31 84 44 77 68 91 c9 bf
       0.011500693342024188 -0.19975000213256203
0000b0 77 02 aa 18 03 a7 cd 3f 7c 9e 25 59 34 5c dd bf
       0.23165930465986026 -0.45875271516567984
0000c0 ca 6f ba 84 eb ad ac 3f 29 32 cc f4 b3 ab b5 bf
       0.056014404251271424 -0.08465122915749447
0000d0 cd 8b 0e 71 ea 01 a1 bf
       -0.033217741299516136

res_blocks.4.conv1.bias f8 [3]
000000 55 c5 0f 53 ac 57 c7 3f 42 ce e9 33 13 cd cc 3f
       0.18236307197325155 0.2250083926661422
000010 c5 a9 cc d1 52 50 d0 3f
       0.25490255821446467

res_blocks.4.conv2.weight f8 [3, 3, 3]
000000 d1 2d 0f dd 4f 4e d4 bf 26 0f ef c0 1c e8 c2 bf
       -0.3172797831327588 -0.1477085058269207
000010 27 57 f0 5d 9d 34 c8 bf ef 86 ba 0b d7 b5 d4 bf
       -0.1891056736646359 -0.32359863419888674
000020 ec 83 31 41 4a 79 bf bf 3f a2 8e aa f5 46 9d bf
       -0.12294448939930164 -0.028591002020819763
000030 58 ba c5 00 04 63 d2 bf 90 7e 21 68 af 4c 98 3f
       -0.28729343486239634 0.0237300307566089
000040 4d 25 b9 8e a3 10 c7 bf 22 9a 94 10 df 0f ac bf
       -0.18019527882487765 -0.05480858876608276
000050 37 f8 14 42 12 54 b4 3f 19 b3 73 cf 43 4b b6 3f
       0.07940782655075017 0.08708595099205886
000060 71 02 aa 0c d9 7a d6 bf 40 1d 92 c6 78 cf bd bf
       -0.351248037688527 -0.11644701812666813
000070 cc f5 65 7d 1e 2d b6 bf 99 62 ea 2c f5 96 d3 bf
       -0.08662596284371843 -0.30608872782026136
000080 74 64 f7 65 ec 89 b7 bf 3d e6 7e 6e a5 33 cb bf
       -0.09194829453862657 -0.2125136174707211
000090 8b cd 6e 35 94 86 d1 bf f4 b6 be a4 b0 ee cd 3f
       -0.2738390466504021 0.23384674114407
0000a0 36 c6 7e 58 7f c1 d6 bf 20 7a 4c 1f 9c ac d2 bf
       -0.35556014673338454 -0.29178526932256155
0000b0 72 01 5c 50 57 f6 b8 bf 08 53 62 5e c7 86 87 bf
       -0.0975088664236006 -0.01148753887927391
0000c0 a9 a2 77 a7 79 aa c3 bf c5 42 fe d7 e1 b4 ad bf
       -0.15363999058833613 -0.05802064668308086
0000d0 c6 fe 39 36 82 24 c0 bf
       -0.1261141552713438

res_blocks.4.conv2.bias f8 [3]
000000 ec 66 db 5d 05 81 d0 bf 40 cc 94 3b c9 d3 82 3f
       -0.2578748146603249 0.009193012362265773
000010 00 21 a9 b0 cb b4 60 3f
       0.002039335090817329

res_blocks.5.conv1.weight f8 [3, 3, 3]
000000 d7 37 f8 1d bd 87 ac bf 7a b7 4e 1b 4e b7 be bf
       -0.05572310438957089 -0.11998451391874979
000010 c1 73 f9 a7 07 50 ba bf 0b 03 b2 0a 19 b5 d1 3f
       -0.10278365946710634 0.27667833370655676
000020 c0 ea 6d c9 5b 48 ca 3f d2 f8 d1 15 94 cc d2 bf
       0.20533320746820571 -0.2937364781463546
000030 97 55 bd c0 63 70 d0 bf 36 96 f1 f3 dc 63 b0 bf
       -0.2568597204420597 -0.06402378993660637
000040 fb dc 64 68 14 10 cd 3f 70 ce 1e b5 ae 51 de bf
       0.227053214048034 -0.4737355011704727
000050 d0 3a 90 cb 88 49 d8 bf 57 d4 38 70 d5 a1 d7 bf
       -0.3794881809161952 -0.36925254782847133
000060 e2 aa 2a aa a3 07 e1 3f b5 23 1f 4b b8 5d a5 bf
       0.5321825336044095 -0.04173065106403532
000070 53 c9 83 58 cb d0 c3 bf 33 15 91 b0 e4 c0 ca bf
       -0.1548093969536902 -0.20901163693830824
000080 c1 41 e1 e3 e6 37 c4 3f 99 88 65 00 5b ae cf 3f
       0.15795599104832372 0.24750840682378764
000090 68 d1 0c c9 08 8a dd bf ea 54 e0 28 e4 22 f2 bf
       -0.4615499461536019 -1.1335183712702084
0000a0 89 82 7c 2c ef 88 c3 bf 5c 8f 75 6f 61 7a c4 3f
       -0.15261640236078147 0.1599847597345797
0000b0 26 57 13 a3 c0 96 e0 3f ec b1 b7 a3 37 a2 93 bf
       0.5184024033612544 -0.01917349755051305
0000c0 51 51 a6 88 b3 ed b3 3f a4 78 21 c7 7e 79 b5 3f
       0.07784578405545985 0.08388512002554421
0000d0 15 7c 25 19 1d 7b c0 3f
       0.12875713088848842

res_blocks.5.conv1.bias f8 [3]
000000 a7 c0 5a 29 5d d1 c4 bf c9 42 4c ea 2a 0b a0 bf
       -0.16263927954924393 -0.031335202313248774
000010 01 27 20 7b 04 b7 d0 3f
       0.2611705019377127

res_blocks.5.conv2.weight f8 [3, 3, 3]
000000 71 48 2d 4a 62 ab e2 bf 11 65 05 13 d1 1e e6 bf
       -0.583420891644222 -0.6912618037705746
000010 d2 a5 3a 79 2e a3 06 c0 69 80 4e 54 45 b0 93 bf
       -2.8296784850142354 -0.01922710730616509
000020 2d ea ba b5 f8 20 03 c0 a1 04 7c fc a3 a9 03 c0
       -2.3910993764559607 -2.45783231023286
000030 bf 5a 61 bc 34 8e 7c bf 58 bb b7 b5 00 68 e7 bf
       -0.006971555709319232 -0.7314456509755969
000040 c9 d2 49 be 9a 5a fe bf 53 73 d9 ba 30 b6 c7 3f
       -1.8971202309741548 0.185247508273188
000050 14 29 3a ab 31 fe df bf 12 e8 1b a0 52 fd d5 bf
       -0.49988977166562276 -0.3435865939678716
000060 c5 e4 08 23 2c 1d c9 bf 05 85 bf ca 03 78 54 bf
       -0.1962027712886877 -0.0012493168860532877
000070 86 70 6e 94 c2 c1 da bf 54 69 e5 2f a2 04 d2 bf
       -0.41807617659811347 -0.2815328090415694
000080 9a 01 49 32 4c 60 ba bf d2 9b d7 93 d0 0a d2 bf
       -0.10303188541093392 -0.2819100803157514
000090 44 30 2e 02 84 97 b4 3f 1f 04 83 6d a1 de cc bf
       0.08043694546921737 -0.2255441460347649
0000a0 56 50 f2 e8 22 1f b5 3f ac 40 9e d9 cb 7a 97 bf
       0.08250635325595232 -0.0229293681691735
0000b0 08 a1 76 bb 24 52 d2 bf 2d ce 9f 04 73 c0 a3 bf
       -0.286263640470239 -0.03857764655540694
0000c0 0d b6 4e 8c 7d d6 c6 bf 71 30 d6 a0 68 8d d1 bf
       -0.1784207282156988 -0.27425590235430436
0000d0 9a 7c ca af 88 4d c0 bf
       -0.1273661478380504

res_blocks.5.conv2.bias f8 [3]
000000 49 95 e8 e1 91 de d3 3f 1f 45 1d bc bb 3d ab 3f
       0.31045958577518157 0.05320536300008371
000010 a8 aa 13 5a 83 56 d7 bf
       -0.3646553401619408

res_blocks.6.conv1.weight f8 [3, 3, 3]
000000 bd 6f 1a 61 72 4d 60 3f 9d 38 24 57 1c c8 c3 bf
       0.0019900545092479114 -0.1545443940635253
000010 d5 d9 f8 4b 7a 6f e6 3f 21 c1 71 f9 34 7d af bf
       0.7011081203298156 -0.06150212807631506
000020 d1 47 34 fe b8 f8 c6 bf 2c 13 30 97 d6 0d d3 bf
       -0.17946541225734206 -0.29771961941178193
000030 96 71 8f fc 79 a0 ac 3f 9e 34 04 32 45 fe ca 3f
       0.05591183860790065 0.2108847135754432
000040 5e 2f 19 41 70 64 c3 bf 5f 57 6d 96 8c 81 a6 3f
       -0.15150263956672466 0.043957131731686465
000050 53 87 b8 f3 24 2c c6 3f b1 1c ad 59 3e f1 da bf
       0.17322217846327223 -0.4209743381256415
000060 fb 61 18 a9 70 f5 b2 3f e0 1e ae 7a 6b b3 b8 bf
       0.07405761841108209 -0.09648772950287876
000070 fd d7 d7 87 75 15 a6 3f 87 a0 23 65 fd 94 be 3f
       0.04313246997109841 0.1194609043046758
000080 95 b6 68 0d 14 98 94 bf b8 48 84 c2 57 db e6 3f
       -0.020111382788107496 0.7142752455859158
000090 a4 27 c1 6a e2 17 e4 3f f9 1e fa 54 42 93 c6 bf
       0.6279155812310262 -0.1763689913680009
0000a0 24 e5 d4 03 1d f3 80 3f cd d0 77 ad 5e ec e5 bf
       0.008276201896125608 -0.6851037395522553
0000b0 97 d6 ec c6 d4 f1 d7 bf 5a fc 29 55 a6 5f b4 bf
       -0.3741352026585018 -0.07958449916076074
0000c0 0f e8 9b 29 41 da e8 3f 69 34 ee dc f0 d3 d9 3f
       0.7766424000431033 0.40356084418528454
0000d0 6b d9 e8 13 64 d6 9e 3f
       0.03011471148985249

res_blocks.6.conv1.bias f8 [3]
000000 eb 73 6d f6 9d e1 e5 bf 1a f0 23 0f d3 d6 ca 3f
       -0.6837911427534186 0.20968092192913518
000010 62 5c 48 41 41 01 e9 bf
       -0.7814031863262125

res_blocks.6.conv2.weight f8 [3, 3, 3]
000000 0e 45 1a e6 99 29 c5 bf 40 60 08 ca 73 39 dc 3f
       -0.16533206687430674 0.4410066102004784
000010 3d d8 c5 29 fe c4 eb bf 78 d9 c6 2f 70 7a e0 3f
       -0.8677969756961442 0.5149460728778612
000020 69 a4 45 1e 25 59 d1 3f fa 7f 8c ae b5 d1 ca 3f
       0.27106597858671094 0.20952483199016553
000030 ca 0b 78 71 41 f2 da 3f 7c cd c4 4f 85 45 fa 3f
       0.4210361106963175 1.6419728389708714
000040 04 75 cf f5 d8 5b f2 3f 5e c9 01 fb f9 97 c2 3f
       1.147423706242365 0.14526295429420605
000050 51 d8 85 f5 e6 76 98 bf d3 d9 60 f1 ad b5 02 c0
       -0.023891075835728085 -2.338710675972132
000060 be 81 9e e3 36 61 ba 3f d2 1c 3d 57 0a ec ef bf
       0.10304587418659758 -0.9975635246163626
000070 2b 68 b1 60 ab 0d d3 bf 9f 6c a9 97 a1 b6 eb bf
       -0.2977093166606461 -0.8660438501496123
000080 b3 ba 41 e4 8f fe e5 bf 75 b7 b4 d0 bb 4a e9 bf
       -0.6873244722499606 -0.7903727604186616
000090 37 c5 93 9b 97 61 7d bf 2a c5 17 ee e4 32 84 bf
       -0.0071731493164731075 -0.009862698093430728
0000a0 37 77 07 7b 1d 41 83 bf f1 7a 7b 51 0f 9b 95 bf
       -0.00940154105859002 -0.021099318836486473
0000b0 99 e8 41 0c d1 3a be bf 9d df ba 52 e9 4e 91 bf
       -0.11808496999029429 -0.016902585672795224
0000c0 5e 34 ef cd 19 64 cc 3f 3a 6e c6 fc 0b e5 f7 3f
       0.22180483394041323 1.4934196352031806
0000d0 3d 0a 55 62 67 c3 e3 3f
       0.6176030083227669

res_blocks.6.conv2.bias f8 [3]
000000 8b 02 b0 0d d2 29 8a 3f 7a 28 d0 3c f7 7f 87 3f
       0.012775078814230475 0.011474544089669293
000010 3e ac aa 73 58 f5 79 3f
       0.006337495341237674

res_blocks.7.conv1.weight f8 [3, 3, 3]
000000 26 47 8b bb 85 7f 79 bf e8 75 86 b1 54 ad de bf
       -0.00622513045591847 -0.47932927452515495
000010 81 bf f4 f8 90 6c a1 3f c1 12 5e f7 b9 09 ad bf
       0.034031420126097174 -0.05671483177778703
000020 bf d9 81 d9 aa 37 b3 3f 7f 77 26 a4 ac 5e da 3f
       0.0750681668303974 0.41202846555994904
000030 08 d2 31 b5 21 ce d4 3f c3 fd 6f a1 75 40 ce 3f
       0.32508127875124204 0.2363421476620556
000040 3a d5 42 67 d9 6c c8 bf 3a 5e 4b c0 4e 8a c4 bf
       -0.19082181493801348 -0.16047081364989585
000050 0d bc 38 37 88 ca b3 3f 30 43 1b 1b c1 52 e6 3f
       0.07730914447959965 0.6976018456863127
000060 f1 eb 02 a6 06 0f d8 3f 14 bb 35 b0 d1 63 c9 3f
       0.3759171124654009 0.1983587370300134
000070 c0 48 4d 77 47 5b 78 3f c0 21 e2 2a 52 77 bd bf
       0.005946425594475169 -0.11510194346386182
000080 40 1c 75 da 23 75 cd bf 07 9e 46 f9 0d f6 d1 bf
       -0.2301373306929424 -0.2806429800352536
000090 28 2a 10 6b d9 95 59 bf b2 82 de fb e7 3e e4 3f
       -0.0015616057610282705 0.6326789779014546
0000a0 2a 5a c4 d4 6f 09 df bf da ff 4a 7f 9b 59 ba 3f
       -0.48495097902324125 0.102929800584206
0000b0 dc ae 9e 12 07 08 ed bf 3e 54 32 5a aa 8a d5 3f
       -0.9072299350422912 0.3365884667230751
0000c0 d5 7d 69 5c 8d cb b3 bf 43 65 e0 f9 42 35 02 40
       -0.07732470995096404 2.2760066529851044
0000d0 a9 b7 99 e0 fe 87 d4 3f
       0.32080051358831924

res_blocks.7.conv1.bias f8 [3]
000000 92 63 0e 9e b8 90 d4 3f 2c 10 8e ac 88 3f d6 bf
       0.32133307871986816 -0.34762780047481345
000010 70 59 08 3a bb bd da 3f
       0.41783028285262613

res_blocks.7.conv2.weight f8 [3, 3, 3]
000000 1a ae ee 54 87 27 d3 3f 26 35 86 38 48 84 c5 3f
       0.29928763670133807 0.16809942970250197
000010 31 a5 2d 38 64 75 de 3f f7 a3 f5 dd c3 f2 c7 bf
       0.4759150074592809 -0.18709610307567434
000020 6a 10 39 d2 4d e9 f9 bf 5b 9c fb 84 c2 5a dd bf
       -1.6194589816887182 -0.4586645411167802
000030 7a 4b 7b 84 f5 89 d1 bf 82 d2 b3 55 93 f3 88 3f
       -0.2740453523412537 0.012183333447390202
000040 76 cc 84 24 e8 25 ea 3f 55 d9 2b 14 05 34 b6 3f
       0.817127295804666 0.08673125975096714
000050 a9 c1 7e 7f 3d 99 98 3f 83 64 38 00 38 87 a3 bf
       0.024022065073667474 -0.03814101221741686
000060 98 d5 35 fc 02 d1 d9 3f 2a 77 25 ae e3 1b e2 3f
       0.40338205938254523 0.5659044648452654
000070 ef 0b be 66 31 8c fc bf e6 e9 5a 0d 8b 74 cb bf
       -1.7842268002866566 -0.2144941153727153
000080 4a fd 3f 80 92 f5 c8 bf c3 00 2b a4 13 ef d0 3f
       -0.19499427091794025 0.2645920851900991
000090 82 d2 af 70 cf 4c b0 3f fe 3d ab 8e 99 1b ac bf
       0.06367203236716004 -0.054898070016516684
0000a0 58 4a c7 53 45 be e0 3f 30 9b bf e8 ce a5 b6 bf
       0.5232264171884919 -0.08846753294311038
0000b0 54 3b 8b 2d 61 cb 8d bf 2e 7e 80 56 25 9f c8 3f
       -0.014548072054280027 0.1923567459461863
0000c0 bd eb 8b 93 8c b3 a9 bf e3 33 ed be 4c ab d5 bf
       -0.05019797612290897 -0.3385803093449892
0000d0 b2 4b 47 b5 06 2d a6 3f
       0.04331227267143535

res_blocks.7.conv2.bias f8 [3]
000000 10 13 cd c0 ea 6b 9f 3f 6f e3 be cc 3f bc c0 bf
       0.030685108201640665 -0.1307449102148683
000010 82 d1 ac 17 00 c8 c8 bf
       -0.19360352664956443

res_blocks.8.conv1.weight f8 [3, 3, 3]
000000 1a ea dd 14 41 51 5c bf f6 85 e3 d4 c4 90 d6 3f
       -0.0017283568917877468 0.3525859908096146
000010 ee e8 b9 5c d9 8b b4 3f d0 f4 09 ba b7 47 84 3f
       0.08025892747710703 0.00990241562362329
000020 6d fb 70 fb 4b cf b9 3f a9 fc c1 d9 93 ea d5 3f
       0.10081934822754386 0.34244247689634705
000030 99 85 2a 8b cf fd 68 bf 41 ab ef 78 4a 2c d4 bf
       -0.003050713881137934 -0.31520330248047307
000040 f1 24 e2 16 09 6b dc bf f5 e2 e2 9e ce bf a6 3f
       -0.44403292879776673 0.04443212213067752
000050 9c ce 66 7c 2a 7c e0 3f f5 b5 92 a0 49 4c e0 bf
       0.5151569776266629 -0.509312451953234
000060 6b 16 42 31 f6 ad ad bf 17 f1 bc 93 1f 27 b0 bf
       -0.05796784735961754 -0.06309697491537168
000070 b6 21 19 3c 32 8a c7 bf 1c 7d 0e 10 2a b0 62 bf
       -0.18390491423111904 -0.0022812673127671334
000080 a8 8b 73 38 d1 fa b6 bf eb 7a a9 c1 e3 cd dd 3f
       -0.08976466777998715 0.46569150841052814
000090 83 bd 7f 79 54 41 c4 bf 20 0d 11 9e 28 4d c1 bf
       -0.15824371273582125 -0.1351671954927065
0000a0 fa cd 4e f3 fb 51 ad 3f 54 31 db 78 12 56 94 3f
       0.05726611466470995 0.019859589220503196
0000b0 3f 49 80 a1 3d 4d a5 3f 4a 87 8d b4 9d f6 f4 3f
       0.041604925121776486 1.3102089932294398
0000c0 3b 88 95 b3 20 59 b5 3f 73 50 af 64 90 bd b0 3f
       0.08339123138787922 0.06539251764417191
0000d0 65 f9 14 e9 1f e7 db bf
       -0.4359817291441657

res_blocks.8.conv1.bias f8 [3]
000000 27 0e b1 4f 70 62 f2 bf 3b 7b 1d 65 38 f3 d3 bf
       -1.1490328896478645 -0.3117199885800123
000010 21 f5 ae b0 a1 fb f1 3f
       1.1239334966370012
