models/darts_logs/Heatwave_TFT/TFT_Heatwave.pt.ckpt (torch, 619439 bytes, 591 tensors)

encoder_vsn.flattened_grn.resample_norm.mask f8 [34]
000000 28 88 81 6a 7d 6b 5f bf e1 63 d2 7c 3f 21 89 bf
       -0.0019177174345022061 -0.012270446774253986
000010 79 20 ed fc 0a 93 b3 bf dc 88 2a 16 ee 46 d8 3f
       -0.07646244692762307 0.3793292252031628
000020 f1 dc 59 a2 88 01 b6 3f 7e fe c1 42 30 93 c2 bf
       0.0859609028210462 -0.14511683711679163
000030 95 c2 bb c4 e8 e3 aa bf 4f 68 28 6f f6 0f af 3f
       -0.052520059600174175 0.06066866022975203
000040 2f 08 b1 44 19 a4 ac bf 1b bf 9c a1 78 21 c5 bf
       -0.055939473757931395 -0.16508396044945858
000050 e6 1b 75 18 21 67 d4 3f 31 71 5a 65 ae ab 9c 3f
       0.3187945116846421 0.02799866193400752
000060 2a b2 1e f2 4f 9f 0e 3f 7e 60 2c b8 c7 d4 95 3f
       5.840742802773844e-05 0.021319504371689828
000070 a2 9d cb 57 59 37 8e bf 6f 3b 8b 25 fd 5a ac 3f
       -0.014754007331659495 0.05538168986605895
000080 cd a9 21 46 c8 0c a7 bf 45 ac 47 00 40 92 a4 3f
       -0.045019396363233356 0.04017829898278839
000090 2f a9 8b e0 c9 ac b4 bf af ee 98 6e 7f 61 85 bf
       -0.08076154453343486 -0.010439868509926368
0000a0 18 70 46 43 17 2f a8 3f 06 bf d3 3e 66 c2 a7 3f
       0.04723427482824166 0.046405024689987015
0000b0 c7 9a 95 5b 90 dc c1 bf 45 e8 d9 a5 c3 86 b5 3f
       -0.13954357597250164 0.08408758925534794
0000c0 31 bd 87 ba 02 4a 80 3f f5 07 4b 64 07 ad 92 bf
       0.007953664128733525 -0.018238177772907666
0000d0 79 02 3e 5f 54 20 a7 bf e9 1e 09 3f 23 47 b8 3f
       -0.04516853010773487 0.09483547486263046
0000e0 b9 72 be eb e9 d7 ba bf 3c 93 4d f8 a0 09 bd bf
       -0.104857082419083 -0.11342817365728036
0000f0 07 02 86 f5 21 fd ba 3f 97 a9 f4 4b b1 b1 b4 3f
       0.10542499775147728 0.08083637337100523
000100 82 28 36 f4 14 40 7a bf 16 fd 3a d3 0d e5 c3 3f
       -0.006408769465801824 0.15542767347322045

encoder_vsn.flattened_grn.resample_norm.norm.weight f8 [34]
000000 d7 a4 ff 90 ab a9 ef 3f f4 d4 88 fa 17 8f ef 3f
       0.9894616920475084 0.9862174885990087
000010 06 6a a2 40 09 0d ef 3f 54 42 8e b4 21 73 f4 3f
       0.9703413259879319 1.2781083157498374
000020 d0 f4 05 d8 b0 95 f1 3f 98 45 82 ae 51 5a ec 3f
       1.0990456045540675 0.8860252769829229
000030 c0 de 0e 78 9c 23 f0 3f 67 b0 b8 91 e4 82 f0 3f
       1.0086941423195839 1.0319562618488136
000040 f5 a9 9b c3 9c 33 ee 3f 7f 03 ea f0 58 39 e8 3f
       0.9438003368825877 0.7570004182199311
000050 68 73 8b 7e ab 43 f3 3f 44 bb 8a 72 28 9b f0 3f
       1.2040209715989594 1.0378803705495594
000060 b6 2d 08 ba 63 b7 ef 3f 70 6b 8a 29 9b 47 f0 3f
       0.9911364205776667 1.0174819586452166
000070 1b c6 c8 e9 2c 07 ef 3f 52 72 f0 93 de c1 f0 3f
       0.9696259084796027 1.047331407439874
000080 d6 b5 6b 79 10 9b ee 3f cf fc 73 85 1c 9a f0 3f
       0.9564287539957899 1.0376248562823098
000090 2b 49 7c 6d 03 ae ec 3f 44 9f 0e 9b e2 12 ef 3f
       0.8962418688190942 0.971055319639142
0000a0 f4 de 3b 13 fb 10 f0 3f 70 59 fd ac ad 14 ef 3f
       1.00414569390517 0.971274221296694
0000b0 2d ff ba 14 7d b3 eb 3f 35 dc 22 5e be de f0 3f
       0.865660229195759 1.0543807675546877
0000c0 fb fd 82 0a 23 d6 ef 3f 00 90 9a 20 1e 6a ee 3f
       0.9948897557550817 0.9504538189689811
0000d0 b3 39 f7 0a ac b9 ed 3f 0c a6 52 05 96 89 f1 3f
       0.9289150442289639 1.0960903366016082
0000e0 73 ff dd 9d 5e e0 ea 3f 87 04 e2 70 79 00 ed 3f
       0.8398888667434065 0.9063079075568944
0000f0 80 fc a1 f2 ab d1 f0 3f b3 1d da 64 27 e7 f1 3f
       1.051189372810569 1.1189340533763754
000100 86 08 b9 75 02 d3 ef 3f ab 68 7d 4b 40 71 f1 3f
       0.9945080088875933 1.0901492070029615

encoder_vsn.flattened_grn.resample_norm.norm.bias f8 [34]
000000 d7 51 e0 2a e8 0f ab bf 1a 83 e0 f9 cd 10 50 bf
       -0.052855735048214995 -0.0009805690274406532
000010 3e d4 c2 41 1f d1 a7 bf 80 bf 67 2e dd 64 7f bf
       -0.04651734998461919 -0.007664550771082079
000020 fc 41 aa bf 3e 36 b1 3f 2c 6f 10 93 32 fd ad bf
       0.06723396472285254 -0.05857236905305138
000030 69 fb eb 52 6b 0a bc 3f c2 33 3f 4f 3d 84 bc bf
       0.10953398489435319 -0.1113928144906842
000040 91 72 e2 0b 65 8b 96 bf c6 31 a5 c5 b3 74 bb 3f
       -0.02201612362897493 0.10724948478054505
000050 00 5a 0f 76 bc e6 94 3f 32 69 70 c6 7c 0a a8 bf
       0.020411438661392722 -0.046955012534640864
000060 fc 57 23 4c 2b 1c 91 bf 16 ee 80 92 c7 8a 96 3f
       -0.01670901920518729 0.022013777081367612
000070 9d 34 8d 0b 67 25 9b bf ba 8d 4e ca 15 e6 85 bf
       -0.02650986679082178 -0.010692758785643675
000080 dc ba 49 b7 c9 52 a0 3f 86 7a 6b 0d 33 23 ab 3f
       0.03188162195589481 0.05300292528931032
000090 00 d9 2e 9b 67 05 b9 3f 45 52 07 89 ca 16 a1 bf
       0.09773871935508183 -0.033377007701038276
0000a0 f5 76 af 7b 99 4e 90 bf 97 24 ba e0 20 b7 72 bf
       -0.01592483346381975 -0.004569176129401906
0000b0 9b cb fc cd 02 11 c5 3f 9a 63 26 64 fa 53 9e bf
       0.16458163316710003 -0.029617225992840092
0000c0 9d c7 f0 85 47 91 98 bf 8c 1a fd 24 ea 6c ba 3f
       -0.023991696882326264 0.10322440531772709
0000d0 b9 30 91 97 7c 38 b1 bf c4 61 35 75 45 2a b2 bf
       -0.06726816845292917 -0.07095750915085036
0000e0 03 97 72 b6 54 65 c3 3f 04 ed 07 63 93 c6 b7 3f
       0.15152987392973935 0.09287377517459922
0000f0 0d 9f 81 9d 5e ce 8a 3f d4 09 fa 94 fb bd ac bf
       0.013088931256973102 -0.05613695329249749
000100 ef 13 23 9b b0 15 92 bf 7f 3b c2 60 fa 72 b0 3f
       -0.017660865277111467 0.06425442564271398

encoder_vsn.flattened_grn.fc1.weight f8 [16, 272]
000000 5e 5d f1 7c 03 cb b3 bf 41 9c c8 bb 71 07 a5 3f
       -0.07731649208414157 0.041072420285040774
000010 de fc 3a 46 d8 4d ae 3f 89 24 1d cb 35 09 c2 3f
       0.05918765885643905 0.1409060708777228
000020 5a 2f d3 2b a7 d9 a5 bf 65 49 3a 27 ee ba cc 3f
       -0.04267618570301464 0.22445465960897618
000030 e8 11 3e dd 9f 2f c8 bf d1 ab 79 49 aa 01 c0 bf
       -0.18895338347296264 -0.12505081737194115
000040 1c d8 62 31 24 65 8b 3f f3 3f fc 6b 6b a2 c0 3f
       0.013376505620140526 0.1299566533348294
000050 8d 22 77 de d8 5f 62 bf da d4 1c 20 70 f7 bc 3f
       -0.0022429691050301404 0.11315060409545499
000060 ea 98 6c ba e5 71 b1 bf f7 f0 08 03 23 56 b4 3f
       -0.06814418603298447 0.0794393427285661
000070 4a 26 16 9f 28 df a5 bf 06 f0 5a 31 77 51 a3 3f
       -0.042718190593472885 0.037730908179099784
000080 fa 41 fa d7 1b 48 7f 3f b6 06 22 23 40 46 88 bf
       0.007637127651506587 -0.011852742263957477
000090 c3 42 0a 63 a2 2c 40 3f be 89 23 24 7f ce c6 bf
       0.0004936020760216365 -0.17817677750197264
0000a0 cc 13 2e 8d 95 7d 6e 3f e7 4c 45 6a 70 a5 c1 3f
       0.003721992581122246 0.13786130131720783
0000b0 18 fe 95 dc 55 c6 ac bf f2 f1 8d 98 75 84 8b 3f
       -0.05620067899416997 0.013436239927380609
0000c0 bc c9 75 14 d0 6d 7c 3f 26 f9 68 a1 43 14 c0 bf
       0.00694066315860414 -0.12561841374731236
0000d0 68 2d 25 cf 44 17 82 3f 27 2a 3b 02 c3 fa 9a bf
       0.00883344418675476 -0.026347205172706858
0000e0 80 b0 16 c2 1b 0f c2 bf af 19 ad 2d 4c 70 ba 3f
       -0.14108607270225448 0.10327602496281572
0000f0 5a 88 44 54 64 cf a2 bf 89 30 91 ea 4b fb a9 3f
       -0.03673852471025958 0.050745365508732716
000100 62 14 6a a0 24 47 b1 bf 0d 33 72 2d 78 b0 80 bf
       -0.06749180714003125 -0.008149088751701972
000110 9f 3a 51 84 f4 14 96 3f 61 6d c6 af 87 1a 97 3f
       0.021564312530524373 0.022562141517125215
000120 02 27 04 7a e7 c1 94 3f 2b a3 db a5 22 b6 b6 bf
       0.020270935842780176 -0.0887166647841126
000130 0d 5c f5 78 c0 e6 b5 bf d5 db c6 3c 09 14 aa bf
       -0.08555224373900235 -0.050934113186876274
000140 0b 45 ec ca e7 7f c6 3f 88 ca 92 a6 18 21 9e bf
       0.17577836426111335 -0.02942312733348243
000150 2b 94 84 7a 4a e2 8a 3f da d7 47 ab dd de be bf
       0.013126928199719575 -0.12058816367775141
000160 6a 75 09 b6 33 14 82 3f bc 37 22 8e fd f0 b7 3f
       0.00882759475023916 0.0935209724432004
000170 7e 57 5f a0 c0 02 8a 3f 34 8f d8 7f 9f 6f c1 3f
       0.012700562376192211 0.1362189649818163
000180 a4 e9 82 18 d3 b0 c5 bf 3d 3d 63 8d 98 0a a2 3f
       -0.16945875832409485 0.035237090358004576
000190 8a b1 33 4d ed 65 bf 3f 78 32 fb 2f 48 b6 bf 3f
       0.1226490319710988 0.12387515231530155
0001a0 15 78 9b 13 8d 72 ad bf 15 d0 6e e6 51 12 a5 bf
       -0.05751458038660943 -0.04115539491559176
0001b0 55 4f 3c c3 e8 44 b9 3f f4 03 01 c6 40 20 3c bf
       0.09870772139066493 -0.0004291685236275649
0001c0 08 82 3f 41 30 b1 99 3f f8 a4 4c 0a d6 bf ae bf
       0.02508998296969092 -0.06005734325146678
0001d0 7a fd e5 ad 18 01 a8 bf 34 e6 65 f3 e6 26 9d bf
       -0.04688336489470664 -0.02846871243079914
0001e0 46 31 56 d1 c2 07 af bf 71 b5 78 71 f6 30 b9 bf
       -0.060606086782260024 -0.09840336103726145
0001f0 42 b8 3c 49 09 b8 d1 bf 15 b3 a0 d7 2f 21 c0 3f
       -0.27685768272465705 0.12601278332422142
000200 5f 98 8e 11 e8 2e b7 3f 22 dc 7a 09 d5 de c3 3f
       0.09055948666227341 0.15523779833685675
000210 4e 92 1c 68 0d ee c7 bf be 1e 86 3b 41 c1 b0 3f
       -0.1869522817952593 0.06544883444996238
000220 8d 3e 7f a5 93 b0 b0 bf 57 7f 30 56 0b b2 c6 bf
       -0.06519434729056624 -0.17730848034352206
000230 0c 4a 2b c4 07 e8 a6 bf 5d b3 3a 84 bf 9f d0 3f
       -0.04473900098459546 0.2597502509404899
000240 a7 46 83 88 13 bf 90 bf 2d 02 e2 30 16 68 ac 3f
       -0.016353898245887646 0.05548161837305474
000250 58 87 bc 26 cc 80 a9 3f 3f b7 4b 06 77 32 99 3f
       0.04981077168328224 0.024606570967925064
000260 5f 8b 94 8a 8e b0 b2 bf 04 75 f6 af 77 d8 ca bf
       -0.07300654300028729 -0.20973106471948466
000270 3f af 89 62 27 eb b6 3f 88 f8 bd 30 90 80 be bf
       0.08952566295346019 -0.11914921941749601
000280 28 2e 9c d0 c6 7e c4 bf ed f1 1b 20 95 6a c7 3f
       -0.16011891542471912 0.18294014041738596
000290 c4 74 ca 37 e8 bf 7b 3f c0 32 92 4a 40 32 67 bf
       0.006774813748646472 -0.0028315787972757744
0002a0 45 c6 22 f6 d0 8a af bf 3a 7e f8 85 7c a3 a7 bf
       -0.06160595898235192 -0.046169177392809194
0002b0 0d e2 8c 1e a8 ce c0 bf 9d d3 33 a2 13 49 cc 3f
       -0.13130666248049785 0.22098012371102707
0002c0 e4 ac 6d 04 7f 60 a6 3f 9c 14 71 33 7e f3 8e 3f
       0.0437049572854791 0.015112863488079768
0002d0 70 fb 57 fc 76 3d c0 3f f2 75 36 80 64 20 9c bf
       0.12687575646847504 -0.027467317891582917
0002e0 76 ed 48 1c 82 64 aa 3f 32 28 99 a1 2f 1b a9 3f
       0.051548067047828036 0.04903553817401053
0002f0 54 d6 6a be ac 15 b5 bf 31 62 af ca f4 ed 8f bf
       -0.08236198090420405 -0.015590584216554767
000300 14 1d 8e 87 c4 ca d0 bf 2b 3b 5d e4 dd 09 ab bf
       -0.2623759578495577 -0.052809652449118914
000310 d5 8a f8 40 86 c3 c5 bf ae 43 c6 5a 60 c7 c0 3f
       -0.17002943203359303 0.13108448440882853
000320 6c 27 b2 db e6 f7 c6 3f 9b e2 6c ce 72 fa 9a 3f
       0.17944036223735382 0.02634601006431812
000330 29 18 69 00 41 b3 c3 bf 3d 4b 13 c6 24 e8 ba 3f
       -0.15390789527936136 0.10510473094772706
000340 03 ec df db 80 19 bd 3f 84 e0 70 36 d9 20 a0 bf
       0.11367040031466051 -0.03150061406671603
000350 0d 2c 27 27 e7 47 97 3f c4 ff 0a bf 93 16 ad 3f
       0.022735225453100628 0.056812874861406765
000360 2b 36 7b fc 90 d6 b6 3f 73 38 a7 47 c6 b3 b9 3f
       0.08921152271360515 0.10039939164491489
000370 1f 9f e1 be 30 53 a1 3f 98 32 a3 47 17 b1 93 bf
       0.033837817479080316 -0.019230235812573854
000380 b7 5e 28 d0 95 7d 87 3f 3c 02 84 17 f2 84 b2 bf
       0.011470003523796774 -0.07234108995545169
000390 97 1a 42 aa 2e eb 8f 3f e5 75 8b f7 e5 6f 9a 3f
       0.015585293360584713 0.025817483171399664
0003a0 fa 04 04 b9 30 a4 b7 bf c3 ea f2 e0 67 13 b7 bf
       -0.09234909550652395 -0.0901398586455953
0003b0 1a 84 86 64 be 8f c6 3f 8f ba 04 c0 84 93 ae bf
       0.1762617102477016 -0.0597192272565411
0003c0 b3 e2 43 ff 56 03 a3 3f ab df 69 e1 4d ca c7 bf
       0.03713485590009693 -0.1858613348629182
0003d0 bf 8e 59 23 6f 21 8d bf 0a a2 cc b0 03 c5 92 3f
       -0.014223926798144658 0.018329675355888177
0003e0 07 84 e9 b1 39 32 b3 bf 10 85 fa c4 22 76 72 3f
       -0.07498512834128244 0.0045071943456218705
0003f0 c3 af 46 c4 30 1a ca 3f 33 53 08 5b 6d dd a2 bf
       0.20392427047533887 -0.036845605242126565
000400 31 f0 70 02 36 7a bf 3f b7 57 8c eb 7f 37 c0 3f
       0.1229585414848209 0.12669371606233223
000410 35 68 a8 e7 ff c6 bd 3f 7f e7 51 0f e4 b4 a7 bf
       0.11631774335583674 -0.04630196272860498
000420 3e c7 ed e8 bf b2 c0 3f 26 db bf 1f 0c 6b b9 bf
       0.13045500634648904 -0.09928966307766682
000430 df 55 35 e0 5f e0 b7 3f 9f f3 b0 6d 5a c1 c4 3f
       0.09326743339382614 0.16215067249313805
000440 c5 c6 e4 0c e0 a1 b6 3f 60 96 ca 36 5f 6f b3 3f
       0.08840751948153087 0.07591815078429809
000450 9f 39 08 52 99 eb bb bf a4 b2 a9 24 e2 ee be 3f
       -0.10906370403993158 0.12083257098283667
000460 12 fc b3 63 5a f7 c8 bf e6 3a 59 00 89 46 bd 3f
       -0.19504861706079218 0.1143575311518635
000470 8e 30 72 2a 7a 9e c4 bf 4a 9c 06 8a 32 98 a7 bf
       -0.16108634064255906 -0.046083049153189906
000480 7a e6 8d 43 2f b0 72 bf 20 3e 09 c4 47 49 b8 3f
       -0.004562554001375946 0.09486816917455387
000490 8e ed 0e 8b a5 90 af 3f da f2 74 49 e5 a7 b4 bf
       0.06165044138421215 -0.08068688434009222
0004a0 40 cf 58 92 80 96 7f 3f 33 30 8f 74 a7 38 ba 3f
       0.007711889489247004 0.10242697330176113
0004b0 73 c4 81 ee 4e 64 ab 3f 0a b3 9f 08 53 d3 98 bf
       0.05349966680012921 -0.024243638421398685
0004c0 dd 91 01 5b 6b 54 af 3f 2a 6b af 6c ea b6 c5 bf
       0.06119094358362862 -0.1696446448030085
0004d0 96 c2 ec 6b 95 ab ac bf 0c 5b 67 08 d1 b3 97 3f
       -0.05599657957498498 0.02314688314239803
0004e0 bc d9 f7 57 7c 82 ae bf 6c 44 bb 57 0c 47 b9 3f
       -0.05958927701788094 0.0987403597057594
0004f0 26 82 85 88 78 39 c2 3f a7 a9 6c c3 61 64 c9 bf
       0.14237887064065652 -0.19837591211519376
000500 b0 48 c6 fc 06 93 b9 bf cf 4a 80 18 17 38 c5 3f
       -0.09989970847371654 0.16577423759789275
000510 99 5f 9e 03 bf 90 c3 3f c5 29 42 e7 8d 17 bb bf
       0.15285480190936765 -0.10582816024740456
000520 72 39 01 85 83 23 c0 3f 2c 1d e8 69 31 40 c5 3f
       0.12608379358648453 0.16602151557183598
000530 80 c4 72 de 23 5a c8 bf 1b 75 0e de 83 9a b6 3f
       -0.19025085794195107 0.08829521342564244
000540 ad 41 e9 91 a8 98 9b 3f 61 b9 11 c4 c4 2e c6 3f
       0.026949533372602797 0.17330226491635428
000550 6e 4e db 8a b3 83 8b 3f f4 9c ae 70 bb 29 a4 bf
       0.013434794116086137 -0.03938089132798864
000560 01 bf 02 e8 32 c2 ba bf 45 27 37 f9 0c 8f 9e bf
       -0.10452573932957067 -0.0298425700291667
000570 67 fb ae e2 7d 4f b6 3f fc d8 28 39 c9 20 aa bf
       0.08715044769540513 -0.05103138754604861
000580 14 b0 08 a4 4c ac c7 bf 70 5d c7 f7 b4 e0 c3 bf
       -0.18494565972776 -0.1552950105530999
000590 40 c5 fc 02 f2 7b 9f bf ef 3c 96 0e 69 d8 d2 bf
       -0.030746251518569467 -0.29445864128588445
0005a0 3c 76 02 28 e3 a0 c1 3f e6 c0 4e ac 6b b4 b9 bf
       0.1377223916396576 -0.10040924984673757
0005b0 f0 7e 35 b3 c9 1f a9 3f 7b fc e0 10 5d 91 ba bf
       0.04907064735993838 -0.10378057157594071
0005c0 08 19 42 77 a1 e7 b4 3f 70 3a cd d1 f6 b2 7b 3f
       0.08165940438820851 0.0067624703777498935
0005d0 04 75 e9 1a 0c ea aa 3f 92 36 21 e4 3c 40 98 bf
       0.052566889081143514 -0.02368254797357012
0005e0 09 60 fe 3c e0 1b d0 3f 08 95 1a 87 99 71 b6 bf
       0.2517014117852346 -0.08767089413102636
0005f0 15 3e 84 1a 1c 31 80 bf ec 83 1a 73 96 0f b3 bf
       -0.00790616947099835 -0.07445659933229337
000600 b5 90 d4 48 3d 2a b7 bf df 93 ae 86 7d 8f c9 3f
       -0.09048827198108962 0.1996914775492362
000610 7f aa 6f 44 19 05 95 bf 47 cb c5 73 cd 34 9f 3f
       -0.020527262498868822 0.030474863234711404
000620 ca 64 1d 02 1b 22 b3 3f 56 be f6 d3 14 93 b3 3f
       0.07473915864592864 0.07646303343676072
000630 57 59 f1 d1 e8 90 a8 bf ba b3 60 ae 91 d1 96 3f
       -0.04798057139184902 0.022283817547009234
000640 b3 5b fe 63 ee 78 96 bf ed e0 34 ad b3 ee cd bf
       -0.021945690968631925 -0.23384710271216794
000650 bd e0 a1 4c 87 18 ae 3f 18 66 a0 5e 8f 95 a6 3f
       0.05878088770345034 0.04410980253323887
000660 52 23 cb 3c 0a 8e a2 bf 4e a9 7a 95 b8 0c b1 bf
       -0.03623992912395714 -0.06660035752671442
000670 f2 99 d4 89 e5 91 c3 3f 67 d8 03 84 01 dc c3 bf
       0.1528899119377481 -0.15515154787107407
000680 9e ec c2 d4 86 de a1 bf 7a 57 df de e3 e6 a3 3f
       -0.03490086886582698 0.038870926815135
000690 42 df 9f 0b 85 3f b7 bf b5 2e e2 71 c9 00 97 bf
       -0.09081298383523254 -0.02246393926229358
0006a0 99 d9 c2 62 51 40 be bf 3e 2c 5c 4b 88 f8 ba bf
       -0.11816891347084492 -0.10535480346531842
0006b0 05 51 f8 2f 1f 66 bd 3f 1c c8 3a c9 b9 48 b7 bf
       0.11483950539724581 -0.09095345652420445
0006c0 66 3b bb 6b e1 2d a3 3f 0e c3 22 48 45 79 89 bf
       0.037459415818026184 -0.012438336624059267
0006d0 80 fa 80 f7 d6 1c 86 3f 81 db 79 d7 df 91 b8 3f
       0.010797194889275774 0.09597586641926449
0006e0 20 4e be 0b 89 67 c2 bf 10 15 e3 7f a3 0f 96 3f
       -0.14378464768798072 0.02154403179226444
0006f0 df cf 2f c8 f2 bc 93 3f 69 7d 95 e3 31 1d ad 3f
       0.019275468319349783 0.05686336424946143
000700 4e d9 72 3f 84 ea 75 bf 21 f2 7e 8f 10 e1 a1 3f
       -0.00535060557665752 0.03492023231180875
000710 7b 72 18 fc a5 be cf bf e2 c0 2d 4e 6e c9 a4 bf
       -0.24800562676763946 -0.04059929565744526
000720 a3 da e0 68 7c 6b a0 bf e1 46 c7 fd 0e 92 a4 3f
       -0.03207005291226508 0.04017683837777298
000730 75 06 a3 cb bd 02 93 bf 0d c7 95 ba 1c 2a a3 3f
       -0.018565145067219697 0.037430665756700156
000740 0b 9e 0b 07 c8 e5 c1 bf 02 32 da 62 f8 05 ac bf
       -0.139824870529296 -0.05473304945653369
000750 a7 82 f0 21 4f 4e b8 3f c1 96 ea 3f 22 29 c9 bf
       0.0949449022159664 -0.19656780358234552
000760 ea 97 f1 19 aa c6 c2 bf a2 1e bc d4 cd 7d 93 bf
       -0.14668775812896168 -0.019034591779045436
000770 ce 4d c7 2a dd bc c9 3f d2 ca 52 92 43 eb c4 bf
       0.20107616986079652 -0.1634296860189211
000780 6a d5 d7 30 2c ed d9 3f e3 1b 9b 17 f3 55 ce 3f
       0.4051008679374123 0.23699797299033695
000790 a7 75 e9 59 52 d6 d1 3f e3 68 a4 d5 6f 59 c2 3f
       0.27870615749801647 0.14335439616917886
0007a0 52 21 db f1 38 57 bf bf 00 8f 76 b2 7b e0 c5 3f
       -0.12242465882002776 0.1709131833459807
0007b0 eb 4d 23 8e 6c 45 c5 bf 10 c9 73 82 92 ef d0 bf
       -0.16618115368201755 -0.26462233294945836
0007c0 86 65 83 73 e6 04 a2 3f 32 55 dd 82 94 a3 b7 bf
       0.035193635559788425 -0.09233978457389894
0007d0 31 69 3b 91 9f 44 c9 bf 48 99 2e 10 fa 7c a5 3f
       -0.19740671721849304 0.04196912238630773
0007e0 f6 42 82 6d 5a 87 9d 3f 0f 22 65 5d 75 08 c1 3f
       0.028836644109619912 0.1330706316023371
0007f0 54 61 c5 15 cb 04 c2 bf 39 d9 56 66 3f ba 8d bf
       -0.1407712799361983 -0.014515395460744972

encoder_vsn.flattened_grn.fc1.bias f8 [16]
000000 60 3f 83 e0 93 17 72 bf b0 45 c5 44 4f 26 6a 3f
       -0.004417016644040789 0.0031920955863504394
000010 be f1 56 d0 c5 1a 8c bf 33 9e 83 c4 03 bc 8f bf
       -0.013722939892311877 -0.01549532836402454
000020 01 f3 8e 8d 7b 6d 7b bf 14 6c d3 0b b3 06 91 bf
       -0.0066962076461407624 -0.016627118679803557
000030 4b 5b 5d 68 26 e3 7c bf 37 1e 17 e3 ac df a3 3f
       -0.007052564649561453 0.03881588241671035
000040 2b 0c 60 2f b0 1a 84 bf 93 52 26 3b d9 b9 63 bf
       -0.009816528745437555 -0.002407955436135653
000050 dd f6 bd 17 73 be a1 3f 45 2f f7 2d e3 a7 83 bf
       0.034656139991950254 -0.0095975635912492
000060 9c 24 74 f1 12 f5 9a 3f e0 1e 10 a0 ad dd 6c bf
       0.026325508105433756 -0.003523673164185101
000070 5e 6d e3 db cc 84 6b 3f 40 78 33 f9 1d 1e 7a 3f
       0.0033592225218918434 0.00637637813926345

encoder_vsn.flattened_grn.context.weight f8 [16, 16]
000000 80 40 cf ab 36 4d 8e 3f bf ca a5 94 5b 7b d1 bf
       0.014795710676395624 -0.273154158748337
000010 96 a8 3c 76 80 52 c8 3f b4 ec ed 2b 5a da d4 bf
       0.19001775525368164 -0.3258271626470546
000020 77 95 ee 9b 49 f8 c6 3f 73 dd 27 7d 12 ca c6 bf
       0.17945213426461823 -0.1780417548286369
000030 f8 04 63 c7 94 c7 c4 3f 2d 96 b5 4e a9 45 cd 3f
       0.16234073386843995 0.22868839591244364
000040 99 1f bf aa 97 35 c5 3f f8 3b 88 b9 3e 3f cb 3f
       0.1656980117534175 0.21286758479297396
000050 b0 f6 ab 5c 6d b5 d7 bf e4 0b d6 39 3e 11 b2 3f
       -0.37044843721364895 0.07057560836805937
000060 f3 16 05 e0 c9 44 ce bf 3d 59 9a 10 e4 43 d1 bf
       -0.23647426069708607 -0.26976873036746324
000070 50 e6 d3 bf 4a 29 d6 bf 79 df 31 4f 16 02 c2 3f
       -0.34627026303460173 0.14068869463858016
000080 2c 80 e5 f3 22 f5 c3 3f 6c 64 50 fb a9 2f ce bf
       0.15591847332962183 -0.2358295895690249
000090 65 fc 2e 94 64 dc d6 bf 2c 6b e7 fd 93 da d0 3f
       -0.35720171423958497 0.2633409480601354
0000a0 a4 52 ea 08 d4 cf 9a bf f8 8f f8 e0 19 5d d1 bf
       -0.026183426899097598 -0.2713074395162489
0000b0 89 76 de 66 33 6e db bf c1 2e 99 8f 81 ac c5 3f
       -0.42860112233925257 0.16932696830405372
0000c0 36 32 97 bf b2 7d b5 3f a7 bd 50 e8 7c 70 b6 bf
       0.08394925286774754 -0.08765392944109483
0000d0 a6 38 5c b6 4a 8a d3 bf 0e f5 0c a9 39 55 0b 3f
       -0.30531566437356117 5.213339057384181e-05
0000e0 f2 d7 64 d2 1b 11 d2 bf 14 d7 ce 3f 82 9d cb 3f
       -0.28229423090249306 0.21574428668616774
0000f0 ab ca 38 50 43 25 70 3f d6 67 2a eb 94 43 c9 bf
       0.003941786711538479 -0.1973749302167664
000100 63 e7 74 4c d3 ab c5 bf 0e e1 80 13 05 b4 d1 bf
       -0.16930619462237492 -0.27661253838188393
000110 ba 62 30 98 09 38 d9 3f 63 21 94 de d7 bb c2 bf
       0.3940452562542692 -0.14635752075288186
000120 0a 89 d2 85 c0 01 bc 3f 15 fc 35 16 f3 a6 96 bf
       0.10940173403881573 -0.022121237021107094
000130 17 ae 2d 3f 64 37 c9 3f d0 75 83 a9 fa 17 c9 3f
       0.19700291714558268 0.19604428555514497
000140 aa 57 07 69 d6 f8 b9 3f 3b 78 49 5f 50 2c d1 3f
       0.10145320953537743 0.26832970910425374
000150 b3 53 2a 39 53 d6 ce 3f 4e b5 e0 4b 94 98 c8 bf
       0.24091568270946837 -0.19215635018319194
000160 4d a5 29 04 54 fd db 3f b9 2d 6d bc 93 f0 cc 3f
       0.437336925568691 0.2260918302584807
000170 e7 a0 c1 fa a3 1f c1 3f d6 7e 38 87 81 52 c2 3f
       0.13377809280360184 0.14314288237164047
000180 98 42 76 db d9 e8 b6 bf e4 cf 43 d2 ef 5f db 3f
       -0.08949052436788418 0.4277305177085948
000190 35 08 dc 32 2a 2b bf bf 78 0e 9f 19 b1 18 d4 3f
       -0.12175239316641824 0.3140070677002096
0001a0 41 18 ad 63 21 b9 c4 bf a3 02 5b 09 54 59 c3 bf
       -0.16189973227500512 -0.15116358238994562
0001b0 f8 06 5c 28 02 9e bf 3f 58 48 20 2f 68 47 dd bf
       0.12350476727808857 -0.45748333551558096
0001c0 06 e0 cb 82 3d ba d4 3f ea 6f 9e c7 bf b0 7a 3f
       0.32386720440945316 0.006516217364971747
0001d0 0a b6 4b 6c ee 48 62 bf dd ef c4 39 0e 33 d0 3f
       -0.002232041997891403 0.2531161846306967
0001e0 84 e5 04 1d 05 32 d6 bf 35 a0 52 4e 95 09 ba bf
       -0.3468029769315637 -0.10170872842957197
0001f0 22 4b 49 86 58 d2 b0 bf f6 0c 13 f1 26 29 a3 3f
       -0.06570962217783152 0.037423340728787766
000200 a4 ed 0b 75 d0 f1 b2 bf 3c 41 28 4c 74 3c a9 bf
       -0.0740022931822098 -0.049289354607142205
000210 ce c2 4e 80 be b5 d1 bf 97 ab 27 ce 78 c1 bf 3f
       -0.27671778230709954 0.12404589684562804
000220 c0 1e af c1 4e 84 c0 bf e5 e4 87 b4 1f f1 d1 bf
       -0.12903770882825505 -0.2803420317646455
000230 c8 a4 48 6b 8e f5 a2 3f 22 5e e4 71 81 1d d0 3f
       0.03702969607940926 0.2518008815982019
000240 79 db 96 80 fa 2d c4 3f 10 28 3a 91 4a 65 c9 bf
       0.15765315321706533 -0.19840366450472446
000250 22 b9 55 10 21 67 d3 bf ef f1 17 dc 78 2b a4 3f
       -0.30316950411988064 0.039394165865790025
000260 9b 5b 69 48 78 94 d3 bf 2e 97 c9 4f ae 3a b7 bf
       -0.3059368807930071 -0.0907391495507823
000270 d2 18 5f 6d 0a 0b b5 3f cc 04 2d 7f 87 df d8 3f
       0.08219971819116559 0.3886431447936729
000280 6b a6 31 30 0a d8 c2 bf 41 15 4f 91 c7 bc cb 3f
       -0.14721801140995025 0.21669859500085845
000290 5a 3b ae 85 f2 df b7 3f 1b 43 50 6a 22 95 d4 bf
       0.09326091540991169 -0.3216024435251243
0002a0 8a 80 da 8c 69 66 bb 3f 5e 7f f7 30 14 8e d4 bf
       0.10703143776709304 -0.3211718061629564
0002b0 50 f5 3b a8 88 7a c4 3f 8f bc 52 44 e8 7a c0 bf
       0.1599894353347886 -0.12875083290189024
0002c0 d9 20 6a 40 a6 52 bd bf 87 b5 92 c4 dd 21 b1 3f
       -0.11454238007184205 0.06692300843379516
0002d0 43 4c 27 5b 68 a7 cf bf 6e 45 59 0b 6f dc d6 3f
       -0.24729637575964789 0.35720420940659536
0002e0 69 13 de f7 e4 bd ce 3f 7b 6e 74 c5 be b7 bf bf
       0.2401701174059341 -0.12389747925447551
0002f0 b0 b5 00 ff 8a f5 d1 bf 0c 48 0c 5d b3 92 d8 3f
       -0.2806117525350045 0.3839538963958382
000300 56 d9 fc 2b 74 f2 c7 3f ba de 57 f9 56 6b c7 3f
       0.18708660266720284 0.18296324896777155
000310 d6 bb bf 3b 4c a3 d7 3f f1 89 50 31 a5 18 cb bf
       0.3693419059263169 -0.21168961437167824
000320 04 2f 5d 7d 64 73 d7 3f 7b 5e 19 b4 eb 79 d3 3f
       0.36641800158098214 0.3043164500026944
000330 9a 76 8b 66 98 2e d9 3f d7 75 99 1c 9c 78 c3 bf
       0.39346895231379053 -0.15211821934182865
000340 04 49 a1 30 ac b0 cd 3f 32 40 a3 be 06 f7 d9 3f
       0.23195412039292063 0.4057022916504166
000350 8f 30 61 f5 2a 61 98 3f 7d 5c 00 ce 1a 87 d3 3f
       0.023808165766511066 0.30512113683057135
000360 c9 e7 db 54 78 b7 c6 bf 6f 5d 95 c0 df 5f d8 3f
       -0.17747406142717484 0.3808516865442106
000370 5c 9c ca 07 80 e7 b7 bf eb cf 11 58 fa 86 d9 3f
       -0.09337616148205669 0.3988633976034623
000380 46 63 48 b7 95 0f d5 bf eb 55 5c 21 f2 bf d0 3f
       -0.3290762224074125 0.26171544320945256
000390 6c a4 60 f0 99 47 b0 bf 74 84 96 d2 4f 9e 86 3f
       -0.06359254950133825 0.011044143308767775
0003a0 27 4a 3b 37 de 0e ad 3f 75 67 8d f9 dc 48 d4 3f
       0.056754059068812084 0.31694721575114865
0003b0 46 f6 fe 68 e9 ba d6 3f 2f 0c 70 2d fa f6 cd bf
       0.3551581883765248 -0.234099647699709
0003c0 8a 2f f2 67 bb 05 d7 3f 50 38 65 af b2 df ae bf
       0.3597248568628336 -0.06030043021256459
0003d0 a8 13 54 8e 04 b9 d2 bf 85 d3 d7 23 a6 ac d8 3f
       -0.29254259013424155 0.3855376577405923
0003e0 3d 73 54 73 8b 28 cb bf f6 51 17 d4 19 b3 c5 bf
       -0.21217482692090953 -0.1695282254792258
0003f0 98 99 24 df 77 64 d1 bf e9 0b 0c 4c e1 ee ce bf
       -0.27175709525399716 -0.24166504109606926
000400 ae d6 f8 39 a0 70 c8 3f 12 b1 1a 36 ee 3d cd 3f
       0.19093706923165626 0.22845246927079949
000410 b6 8a cd 1e d5 56 b3 3f 3b fd 9f 8a 64 62 d1 3f
       0.07554370882057068 0.2716304162749627
000420 e3 59 61 72 7b ea a8 3f 26 7a 2f c6 48 cb cb 3f
       0.04866395732158304 0.21714124371551796
000430 19 96 7c e0 d0 a3 db bf 8e 5a 97 6c 0d d8 8f bf
       -0.4318735306027022 -0.015548806072655876
000440 b4 a8 0f 96 3e 26 d4 3f c5 da d5 8c d9 9f b7 bf
       0.3148342576447576 -0.09228286445964347
000450 5f ae 7c f5 34 43 c4 bf 2a 30 e9 8f 5a dd d6 bf
       -0.1583009909312407 -0.3572603612308308
000460 9d a4 54 4c c9 5f d2 bf 8a ce 5c 91 c2 be cb 3f
       -0.2870963330665946 0.21675903413562408
000470 68 2a 3f 20 ea be b0 bf 53 63 61 a4 22 62 c0 bf
       -0.06541312491678186 -0.12799485231769356
000480 6f 2e b1 68 0f 10 c0 3f 01 0c 34 90 62 88 d3 bf
       0.1254901181404082 -0.3051992805705482
000490 f0 e4 cd 23 2d da 93 3f 6b 91 a9 80 3d f5 df 3f
       0.019386964140243046 0.4993432766407497
0004a0 0d c4 a4 82 bd 0f ae 3f 45 95 20 25 ff 90 ce 3f
       0.058713838765818684 0.23879994690757136
0004b0 ac e7 6e 90 c3 2a bb bf fe 12 12 10 17 9b c5 3f
       -0.10612127567483637 0.16879547390649202
0004c0 c0 3f 85 6a b5 35 cb bf b6 f5 86 44 6d a2 da bf
       -0.2125765581245087 -0.41616374675853807
0004d0 87 b5 9e 85 c0 ff ca 3f 01 a9 e5 71 79 49 d0 3f
       0.21092993282711012 0.25448452112927106
0004e0 d6 4d e6 9c a8 fd c8 bf 26 4c 40 fd 87 ab bf 3f
       -0.19524104748835097 0.12371110852136322
0004f0 e0 ee b0 23 c1 86 c3 3f c1 25 df a2 73 2e ce 3f
       0.1525498794816178 0.23579259350507978
000500 40 8f b3 a9 d5 34 cc 3f 78 3a 25 26 a5 53 ab bf
       0.22036238466454883 -0.05337253656999946
000510 71 8b 01 74 ca e2 b3 bf a7 5e 24 97 a9 9b ba 3f
       -0.07767930347612918 0.10393772068015981
000520 75 ff 56 63 99 13 bc 3f 44 95 b6 b7 c6 3a d4 3f
       0.10967405963219597 0.3160874170374266
000530 ab f5 e4 42 09 08 ba 3f e6 be 0d cb f7 4b b8 3f
       0.10168512232936304 0.09490917880406932
000540 3b e6 06 0e d5 c7 b3 bf 97 2a 8c b6 76 e5 a3 3f
       -0.07726794807867858 0.038860044273026854
000550 70 ec fb 96 f5 14 c9 3f 01 1a 19 75 86 ca c0 bf
       0.19595212814587937 -0.13118057935407992
000560 a6 31 49 ed c0 6e d6 3f 6c 07 6b 9c ca 66 5d bf
       0.3505098645444157 -0.001794526922524099
000570 8c d3 e1 4a d7 31 c2 3f 0c 67 9e 3f 49 f7 cd 3f
       0.14214602619508943 0.23410907369980583
000580 ce 4e be 20 c2 70 c1 bf 9f e2 9c 48 4e c2 c0 bf
       -0.13625361059950197 -0.13092974229382023
000590 ed 18 0b ab 00 71 be 3f 1d cd 6c 32 cc f6 d1 3f
       0.11891178298819556 0.280688332789582
0005a0 37 58 02 2f 36 f7 d9 3f ef 5a 2a 76 31 11 ab 3f
       0.40571360197771206 0.05286554877709714
0005b0 f0 00 5f 89 e4 74 ca bf 04 09 76 fa 7e a2 c3 3f
       -0.2066922827489246 0.15339648465676003
0005c0 2a 4c 23 5d ea 47 d4 bf f5 88 20 74 7b 56 a4 bf
       -0.3168893727826708 -0.03972230713431372
0005d0 76 f4 cd 47 de 89 bc 3f 03 2e 21 a2 6e 45 c6 bf
       0.11147870305099325 -0.1739939014099577
0005e0 bf 5b f6 7c 78 e1 d1 bf a0 87 96 46 10 69 cb 3f
       -0.279386636765988 0.21414378592186
0005f0 5f 2e 2f f2 74 54 c9 bf 2a af c3 4b 1f b5 bd bf
       -0.1978899176159414 -0.11604495620457259
000600 df 81 bd 1f 34 f6 d9 3f e8 02 65 43 9e 23 c0 bf
       0.40565207576403667 -0.12608698168516885
000610 4b f5 82 c5 21 ad 90 bf f2 38 9b 5d 1a c6 d1 3f
       -0.016285445861958164 0.27771624699825204
000620 00 d3 71 f0 7f e3 cb bf 25 31 3c c6 49 4f c9 3f
       -0.21788024177990195 0.19773218326043565
000630 66 ce b4 b6 34 cb c6 bf 37 e9 83 14 d7 7c cd bf
       -0.17807635232167057 -0.23037231923792387
000640 b5 3b 1c ca af b5 d6 3f b9 97 98 dd 39 03 c0 3f
       0.35483927476246474 0.12509845085258833
000650 31 2b 0a 03 d2 fd cb bf 2d 1e 0a a6 6f 45 94 3f
       -0.2186834826319113 0.019796127804992892
000660 7d 5c 46 4e e0 fa c4 3f cc 5a 36 3c a8 44 c4 3f
       0.1639061338616762 0.15834525051169235
000670 a7 b6 fc 36 32 25 d3 bf a5 b5 b5 ab 45 09 d0 3f
       -0.2991452729209904 0.25056592720542376
000680 13 ed 46 9e 80 0a d7 3f d7 71 bf 0c 1f 81 cd 3f
       0.36001601654761933 0.23050296900227238
000690 18 aa b7 13 ff d1 cd 3f 36 c4 b7 ec 63 66 c7 3f
       0.23297108137860856 0.18281220491874856
0006a0 19 bd 99 73 cf f0 d2 3f 08 f1 3e fc 5b ee d1 3f
       0.2959478978072681 0.280173298200467
0006b0 6c 69 34 88 34 a9 d5 3f 40 15 a6 05 41 4e b2 bf
       0.33845246602290646 -0.07150656116399023
0006c0 9d 7c fc 8c a0 4d c8 3f 01 2f c4 91 de b7 d4 bf
       0.1898689926538041 -0.3237224982737957
0006d0 f6 85 c2 cc 8d 62 b3 bf c9 a8 11 44 5d 9f c3 bf
       -0.07572256325740753 -0.15330091308289287
0006e0 d8 70 78 81 f0 c7 c8 bf f2 52 84 c9 80 ef c7 bf
       -0.19360166856575378 -0.1869965537995522
0006f0 a7 de cb 55 c4 7e ca bf 24 8f d8 ef 95 09 d0 bf
       -0.20699361981654826 -0.25058506414846904
000700 1b 33 3c 16 54 9d d8 bf 92 4a bd 8d 00 16 c6 bf
       -0.38460256739999615 -0.17254645272131036
000710 62 7f d3 f4 58 97 a3 bf f4 70 91 cc 7b 53 c0 bf
       -0.03826406468010536 -0.1275477169864484
000720 88 be cf f8 ec 2a cc bf 70 97 5f 8d 02 3d d6 3f
       -0.22005998753546785 0.34747375303265127
000730 5f 70 50 0b 8c 84 dc 3f a3 71 c7 62 ca ae d5 bf
       0.44559002976325773 -0.3387933697356635
000740 f8 45 74 cf 11 87 d3 bf 71 ce 20 96 3f a9 a9 bf
       -0.30511899241636753 -0.05011938769930858
000750 64 75 bb 67 74 fc c0 3f f8 7e 74 2e c9 70 90 3f
       0.1327043062691856 0.016055243931190483
000760 da aa 19 43 fb 81 da bf b3 41 95 37 4f 63 ae bf
       -0.4141834407115944 -0.05935142091277914
000770 62 d4 94 4d cb 4c a3 bf 3a 01 04 66 46 9a c9 3f
       -0.03769526788747936 0.20002059918625453
000780 a2 ca 66 48 fd 75 c1 bf 2b 8e e2 82 16 24 ac 3f
       -0.13641325030547075 0.05496282909123481
000790 70 ee 79 73 d5 9d cd bf 28 29 68 de e8 27 c0 bf
       -0.23137920511713927 -0.1262179456683239
0007a0 20 df 17 46 6a a2 ca 3f d5 d9 c5 b2 71 28 89 3f
       0.20808151648065465 0.012284172313894818
0007b0 df e8 c8 8c eb f7 d7 bf d5 94 f7 a2 e8 91 cc 3f
       -0.37450684307590437 0.22320278127077722
0007c0 55 90 e4 29 4f 6b d3 bf e0 57 3a 9e cb 07 d1 3f
       -0.30342463580223483 0.26610079242652596
0007d0 46 b5 4c df 86 2c ab 3f 0c 5c 46 e7 f0 5f c6 bf
       0.053074087866074524 -0.17480288784710785
0007e0 8a 3c e9 22 88 d8 b5 3f bd cf 99 8a bb 10 c0 3f
       0.08533526279755868 0.1255106379281851
0007f0 09 89 a8 fb 4e 5d b5 3f 6b 05 98 b2 4f 81 b3 3f
       0.0834550251388785 0.07619188413811677

encoder_vsn.flattened_grn.fc2.weight f8 [16, 16]
000000 e9 b0 e5 13 1b f7 af bf da 8e 5c e0 ce cb d6 bf
       -0.06243214242826573 -0.35618945989902573
000010 a9 21 0f eb 00 be d6 bf 0c 53 19 75 b6 26 d7 bf
       -0.35534689860335306 -0.36173783717576735
000020 ed 51 fb 2d fc 52 a3 bf 1c cb f1 63 27 c5 d4 bf
       -0.037742500889780796 -0.3245333171864091
000030 8c ef 19 a6 40 d8 de 3f e7 31 3f 4a 87 28 ba 3f
       0.4819490072329635 0.10218091547648776
000040 a2 03 32 6b 47 0b ba bf f9 e2 86 3e eb a5 92 3f
       -0.10173460356783307 0.01821105546125332
000050 a2 15 88 ee 86 da c3 3f af 04 b9 fb 1f e5 a6 3f
       0.15510641715097245 0.04471683452403263
000060 30 30 3e ef 88 91 bb 3f b9 3f f8 5d bc 24 d8 bf
       0.10768943634883565 -0.37724217583399483
000070 2f 53 84 a8 a9 20 e2 bf c6 60 72 2c 1a 87 de bf
       -0.566487149366912 -0.47699598637110474
000080 c2 65 83 52 98 1a 83 3f 80 11 df 2b 03 18 87 3f
       0.00932806970415612 0.011276268745753937
000090 af 62 bb e5 93 aa cd bf 36 ac 37 ef 26 e7 c0 bf
       -0.23176811902410097 -0.13205420189419365
0000a0 a5 25 f1 94 b2 57 55 bf d8 cb 49 af 1b 21 c1 3f
       -0.0013026470148978866 0.13382288035390277
0000b0 e1 e8 a6 68 3f cc d6 bf 94 b1 c9 b3 0f 5e e0 3f
       -0.35621628971024505 0.5114820968133693
0000c0 de 14 73 d3 69 a9 da 3f 38 0f d9 e7 53 86 e0 bf
       0.416590172284783 -0.5163974312094757
0000d0 59 cf f6 61 66 41 e5 3f 9c b4 2f c0 88 38 b4 bf
       0.6642333901749949 -0.07898764316606094
0000e0 4d 80 cc 44 ec cc e7 bf 91 06 76 3f f5 42 c6 3f
       -0.743765005467148 0.17391839598353845
0000f0 38 9e 5c aa 3a 0d bc 3f 8d 70 36 aa 74 64 e0 bf
       0.10957686099265451 -0.5122626614061275
000100 8f 78 1a 5a 15 3b e2 3f 9d 50 6b ec 03 a2 da bf
       0.5697123298484871 -0.41613863075077423
000110 d7 ff 45 ff fc ee c2 3f 80 9b 57 5d f0 a8 d3 3f
       0.14791834320567318 0.30718621364069776
000120 7f 8f a4 0f a7 98 e3 3f 98 25 28 d1 aa 16 e5 3f
       0.6123843484424326 0.6590169987768375
000130 b0 7f f4 36 14 f0 c3 3f 60 5f 83 9f 93 92 d7 3f
       0.15576412852624122 0.3683213289018479
000140 c9 04 e7 0e c9 a3 e7 3f 66 fc 6a ba c0 51 cd 3f
       0.7387433329642131 0.22905739881932446
000150 b1 42 29 c2 38 b2 b9 3f 55 d5 3a b7 42 64 be 3f
       0.10037569751990351 0.11871735547432156
000160 16 b0 32 d3 c2 f0 bf 3f 8c 50 29 80 77 8f d8 bf
       0.12476747184945255 -0.3837565185142544
000170 fe ad 3b af 28 82 ce 3f 59 cb 7c 7f 99 19 cd 3f
       0.23834713512711397 0.22734373784040932
000180 9b 27 03 fb 2f c5 d4 bf ee eb 91 09 7d 46 d6 3f
       -0.32453536522791077 0.34805227217265056
000190 67 cf c7 7b 70 3a c2 3f 14 f4 7b 6b 9b 46 84 3f
       0.1424084286114706 0.00990029737249113
0001a0 91 5f bb 97 86 f4 cb 3f 9a 4b 58 69 14 7d d3 3f
       0.21839983376298425 0.30450926101291886
0001b0 f3 5a 2b 10 70 7d ad 3f 87 17 61 d4 54 38 ca 3f
       0.057597639058874515 0.20484409685212432
0001c0 93 e3 64 e6 fa e7 b6 3f 35 10 d7 b3 6e 8b d1 3f
       0.08947723507743736 0.2741352802515878
0001d0 6f ad 68 46 70 7d 91 3f 15 d3 2b 83 a5 4b a7 3f
       0.017080072686594002 0.04549901224337397
0001e0 bb cc ad 19 23 5c c0 bf ea f3 1f e7 2f ea e7 bf
       -0.12781180147030632 -0.7473372949749522
0001f0 d9 8d 07 26 fa 18 e1 bf 52 80 84 fe 14 0f e7 3f
       -0.5342989676250297 0.7205910655066055
000200 87 b0 b2 f7 41 7c e5 bf 2b 6a b0 98 f2 f0 d1 3f
       -0.6714181745387727 0.2803312769989669
000210 6f f4 9b 96 4c 8d e1 3f b4 c3 64 c0 38 e8 8c 3f
       0.5484984342180165 0.014114802714716969
000220 71 49 80 34 c2 0f e0 3f aa fb 75 e3 0c cf de 3f
       0.5019236588871491 0.48138735020614354
000230 f0 72 b1 a8 01 27 c9 3f 02 6d 75 4b 63 40 d5 bf
       0.19650288331003862 -0.33205492371571677
000240 14 ed 9b 04 0b 4b d0 bf 45 17 ac de 9a 13 e3 3f
       -0.2545802636156662 0.5961431836192125
000250 b5 5e 43 cf 2f e6 bf bf 6b 8b eb 0d 14 c2 d2 bf
       -0.12460612115989529 -0.29309560164818177
000260 37 90 4f bb 2f 95 c0 bf 1c 4c a6 47 e1 24 5c 3f
       -0.12955280920061948 0.0017177772520866668
000270 e0 f9 1a 5b 7c 30 d9 bf 8d a2 c4 6b 87 a4 ef 3f
       -0.39358433625230127 0.988834105000096
000280 21 66 a5 01 2b 0e d5 bf 2c 6a 35 60 d9 05 81 bf
       -0.3289897457194418 -0.008311937569193871
000290 6a 4f 9f aa 90 ce e3 bf 4e 37 26 90 d7 1d c0 bf
       -0.618965466734591 -0.12591070688761835
0002a0 61 a2 fd aa 4c 53 e3 bf 1b 3d 81 e2 6f 73 c3 bf
       -0.6039183940566312 -0.15196035919004988
0002b0 70 2e 61 67 4a f3 81 bf ed 93 81 bb 42 e4 cd 3f
       -0.008764821319480393 0.2335284629399718
0002c0 22 f1 43 87 9c 60 d1 3f aa 2e 74 fa 34 9e d8 bf
       0.2715216942740587 -0.3846561857069256
0002d0 e5 d3 35 6e 61 d3 e8 bf 24 00 1e d8 02 2e d4 3f
       -0.7758032944244603 0.3153082952994757
0002e0 b1 bf 9a e4 85 fb 66 bf 5d 86 17 6e cf d9 a6 3f
       -0.0028054823968303934 0.04463051051039877
0002f0 58 a4 34 98 31 2b bb 3f 9f b1 e1 be 48 9b b3 bf
       0.10612783399541692 -0.07658819828220097
000300 1d eb 47 f3 dc fc c3 3f 66 f7 9c d8 ae 74 d4 bf
       0.15615426901771282 -0.3196217646944802
000310 c9 42 1e f5 42 98 da bf df 31 3f 97 ee ae db 3f
       -0.4155433076603399 0.4325520016689363
000320 8a 58 e4 92 e9 d7 c8 bf 31 cd ce 9c 9c 84 db 3f
       -0.19408912346324697 0.42996897996200106
000330 d0 63 e4 ef 78 9b b9 bf bb 74 9d ce 5d bd b8 bf
       -0.10002857071630378 -0.09663950247109458
000340 9f 89 b2 42 08 4d dc bf 1e 3b 22 df e3 6a da 3f
       -0.4422016764966887 0.4127740553894216
000350 c7 f9 fc 03 f5 1e d1 bf 90 4c 9f 14 ea 2b ea 3f
       -0.2675144709536678 0.8178606417444758
000360 af fa 71 87 55 b1 91 bf 4c b5 57 a5 a9 d6 d8 3f
       -0.017278038398667202 0.3881019701646735
000370 99 40 cb c0 41 3e ba bf 5a 11 da c2 60 f1 d5 bf
       -0.1025124641121259 -0.3428575423097492
000380 4a 55 6a d6 0b c0 da 3f f6 a7 d7 0f 18 5d b3 3f
       0.41797157229423887 0.07563925158288484
000390 73 6f 17 85 f5 b2 c3 3f 99 0f 0b db 89 13 e1 3f
       0.1538988971577698 0.5336350706279404
0003a0 93 22 8c 5b 11 31 e0 3f c8 8b 53 98 ed dc dc 3f
       0.5059897220645148 0.45098438144321706
0003b0 34 7f 8a 21 43 02 e3 3f 16 b4 72 76 46 bc db bf
       0.594026151189587 -0.4333664089888897
0003c0 35 48 5f 8b af 53 d5 bf 90 35 52 95 e5 00 e0 3f
       -0.33323277102056476 0.5001094738415066
0003d0 d0 c2 b1 df 73 9a e0 3f 60 03 b0 80 ee d8 d7 bf
       0.518854081061443 -0.37261545722144795
0003e0 60 56 b8 b2 68 5c db bf be 0b 2c 71 18 69 e2 3f
       -0.4275151963532604 0.5753290377036746
0003f0 82 4d c7 3b 72 ba ec bf 53 04 8a 75 a4 01 d7 bf
       -0.8977595489072174 -0.3594752452700664
000400 dd 8b 7c b3 ab 53 ce bf c3 60 d1 3c ff 24 d6 bf
       -0.23692842735280709 -0.346008119003738
000410 ae 69 db 3f 48 4b e6 bf a1 a3 b5 53 47 e7 70 bf
       -0.6966897246559733 -0.00412681448083499
000420 b5 39 94 c6 01 09 c2 3f 2d ef 34 d9 3e f0 c1 bf
       0.1408998698829699 -0.1401442108707384
000430 f0 dd 91 be 1b 23 c9 3f a4 f6 23 7c 95 4a b5 3f
       0.19638392262616788 0.0831693103864049
000440 ce d2 33 56 4d 8f d6 bf da ef 89 eb f4 e9 d1 3f
       -0.35249646585661487 0.2799045849021674
000450 6c 87 0f 55 05 0b 9e bf 47 71 0f ab 71 63 9f 3f
       -0.029338916126909906 0.03065278631753301
000460 15 e1 a6 6e d2 3c d2 bf fa 21 21 6c 9f 64 df 3f
       -0.2849622803291976 0.49051652488245134
000470 b2 47 0b b7 7b e8 ed 3f 5f a1 25 01 45 a7 cf bf
       0.9346293044165945 -0.2472921615219645
000480 de 10 38 60 04 e9 db 3f 73 fa 06 ec f9 6b c1 bf
       0.4360972346915001 -0.13610767388123043
000490 57 ae 76 d1 5d b3 da bf 7d ab a7 d5 d5 c1 c6 3f
       -0.41719766097478356 0.17779038364764324
0004a0 3e 57 53 3a 40 de af 3f 41 28 76 36 df 8b 99 bf
       0.06224251472455798 -0.02494763154894764
0004b0 71 2f 6e c1 c6 15 ca bf 7a e3 2e 0d 4b e0 dd bf
       -0.20378956265301043 -0.46681476867120575
0004c0 da 80 bd 1d b7 7b dc bf 70 5e 85 7e fd f6 a8 3f
       -0.44505098251648934 0.04875938577123129
0004d0 1e bf f7 17 af ef cc bf a0 c0 74 a0 5b a3 c5 3f
       -0.22606457395840435 0.16904778799790154
0004e0 a6 09 c4 81 aa ba d0 3f 09 ae c3 02 c7 d0 d1 bf
       0.26139319107474035 -0.2783677603717654
0004f0 fa 78 57 b2 a6 a0 c9 bf 61 a8 1e 37 83 55 ba 3f
       -0.20021518428888624 0.10286731811234652
000500 95 cd bc 6a c8 d7 ba 3f 77 ad d0 59 66 65 e2 3f
       0.10485508542915618 0.5748779062463844
000510 37 93 a0 ca 82 01 e6 3f 09 51 fe 97 90 89 b9 3f
       0.6876844365657239 0.0997553225591369
000520 3e a7 71 50 cc 1c d7 bf 23 41 80 b0 27 3e e6 bf
       -0.36113269668441095 -0.6950872847828901
000530 8c be 68 95 9f 2a c0 3f c6 ae a3 0e 53 24 e4 3f
       0.1263007621323492 0.6294341360021114
000540 7e 6b bb 07 52 c4 d3 bf 1b 3d 8a f9 6b 36 ce bf
       -0.30885744814957394 -0.2360358208138472
000550 de bc 22 89 76 a4 d9 bf d1 71 8b 70 43 1d e3 3f
       -0.40066302673490195 0.5973221967829493
000560 ca 2e ad d8 13 ce bf bf 17 31 e2 e4 1a 3f b8 3f
       -0.12423824348405357 0.09471290672280862
000570 64 65 90 db bf b7 cd 3f b7 6c a1 db d6 9e e0 3f
       0.23217008801365602 0.5193895616206622
000580 c2 0c 50 ab cb af a3 3f 7d 32 26 74 8d 14 dd 3f
       0.038450588857835935 0.45437942831703265
000590 01 f5 b7 77 cd 45 dc bf 41 b7 4e 5d de f4 b4 bf
       -0.44176041308658404 -0.08186139848723163
0005a0 82 87 3f f2 a0 90 e0 bf 82 82 2f c5 64 74 c0 bf
       -0.5176548701676753 -0.1285520518131485
0005b0 ae eb b5 71 d7 e6 cc bf dd e5 86 b3 48 a4 dd bf
       -0.22579472591664057 -0.4631520989601919
0005c0 57 c0 dd 8c de 19 b1 bf a6 13 4a e6 16 b5 da bf
       -0.0668009847556744 -0.41730282296367205
0005d0 a8 2a 4a 15 63 9c d1 bf de a0 e4 72 df b1 c4 3f
       -0.27517010764192174 0.1616782485009542
0005e0 15 66 eb 14 b5 5c e3 bf 8f 71 71 a2 c0 0b d7 3f
       -0.6050668152412891 0.36009231437289996
0005f0 e6 11 32 13 ea 0d c6 bf 42 c5 57 d6 e5 8b d5 3f
       -0.172299632428021 0.3366636841957026
000600 09 9b 34 18 c2 b7 d0 3f cd 26 35 ab c3 29 cf bf
       0.2612157093412156 -0.24346204623934967
000610 e2 35 e4 8d 0b 32 c8 3f 41 54 1a fe 32 dd c4 3f
       0.189027256281789 0.1630004635559619
000620 ce 3e 57 7d ec 45 a7 bf 98 5d 86 8f 5e 13 e4 bf
       -0.04545535116232956 -0.6273644259662658
000630 ef 04 ff fd f9 6b ec 3f cb 5b 68 b7 c4 6a dc 3f
       0.8881807289946247 0.4440166274156893
000640 aa d8 72 a4 06 4f c6 3f 8e a3 ae 78 cf e9 d1 3f
       0.1742866805049677 0.27989565644616554
000650 af 80 2a e0 31 2f bb bf 53 d6 0a 60 bf 94 df 3f
       -0.10618888590625163 0.4934538305200011
000660 f8 b7 39 68 82 13 d7 3f 1e 9d 4a 71 1d e9 e3 bf
       0.3605657594515601 -0.6222064221118762
000670 30 0b 16 f8 d9 bb e6 3f ac e4 89 6d 52 fd de 3f
       0.7104310841972161 0.4842115468705497
000680 67 11 27 5e 87 f6 d2 bf 1e f1 42 ae bf b0 a9 3f
       -0.2962969226321292 0.05017661096778368
000690 f0 70 ff 04 4b aa d4 3f db 4d d2 af 0d 0c de bf
       0.32289386261051245 -0.4694856850630608
0006a0 e9 cb 43 21 78 a7 e9 3f 3d 6b 44 9f e8 d9 d3 bf
       0.8016930246070589 -0.31017509034579743
0006b0 ab 19 73 6b dd dc c1 bf f7 d3 10 71 ea d2 c4 bf
       -0.13955276247561463 -0.16268663903034028
0006c0 bd 95 89 45 6d bf d8 3f e7 51 6e ba 0e bc cd bf
       0.3866837672306607 -0.23230156043122394
0006d0 69 50 53 ab 1c 2d d8 bf e0 91 d0 13 7c 2a d1 3f
       -0.37775341731072004 0.2682180589202101
0006e0 dd 52 a3 a3 c0 1d d1 bf e5 32 1b 3e 7a 93 87 3f
       -0.26744094829818527 0.011511759777385897
0006f0 28 32 39 73 5b cd d9 bf 0c f3 0c 60 e3 59 d3 3f
       -0.4031590104321219 0.30236133937778287
000700 16 60 dd 88 b7 5c da 3f 1b 7e b4 aa eb 1d e9 bf
       0.4119089924402045 -0.7849024137576096
000710 ea d1 cf 63 68 b6 42 bf 53 95 49 33 38 1a da 3f
       -0.0005710611072787229 0.40785031326807547
000720 d0 11 cf cc 81 54 d1 bf 45 f2 f6 7c 02 f2 dc bf
       -0.27078289986482407 -0.4522711010320431
000730 6f b0 42 bb 0e d2 e2 bf a3 61 d0 1a e1 bc d3 bf
       -0.5881417901450855 -0.3084032785277719
000740 75 4b 47 6c c7 5e df 3f 0c b0 f5 41 57 a2 d5 3f
       0.4901598508269481 0.33803349915865577
000750 4a cb 36 04 94 c5 c3 3f 4f d5 60 1a 2c b3 b8 3f
       0.15446710782779355 0.09648395198822367
000760 af c8 5a 9a 88 1c 8d 3f d0 99 52 c7 48 23 d0 3f
       0.014214579782990759 0.25215358224013773
000770 0d 4b 38 2e fd c9 de bf 36 6e 28 05 bf 89 e0 bf
       -0.4810784293523945 -0.5168147183171132
000780 12 70 05 21 82 43 b9 bf f4 21 33 05 6a a8 ba bf
       -0.09868634515936517 -0.10413229586550427
000790 91 f1 e3 1d 71 b7 9a 3f cc 65 fa b1 ca b1 cf 3f
       0.026090400170674825 0.24761327448213277
0007a0 e9 48 c2 ac bf 91 df 3f 2e ee 6c 85 1e 34 c3 bf
       0.49327079649914524 -0.15002805247228096
0007b0 75 51 26 a8 03 29 e8 3f 26 3b 93 48 e8 35 c5 bf
       0.7550066265271612 -0.16570762199122518
0007c0 4d 62 53 f4 a8 4d cc bf 3d fd ac 45 47 7f c0 3f
       -0.22111999444929822 0.12888422872672747
0007d0 08 4c 4c 04 d8 30 1f 3f ff 74 f7 c1 01 96 db 3f
       0.00011898344480369704 0.4310306925015794
0007e0 93 01 99 b4 f1 14 c6 3f 42 6c a8 57 74 85 dd 3f
       0.17251416509863002 0.46127041397420865
0007f0 f2 3b 03 85 61 4f a9 3f 5d 8c 63 58 81 b6 e0 bf
       0.049433753477948886 -0.5222784735054905

encoder_vsn.flattened_grn.fc2.bias f8 [16]
000000 6f 05 1d 32 8a 56 b3 3f 83 eb fa 8e 0a 13 a4 bf
       0.07553924296828084 -0.03920777316439852
000010 ca 32 2a 66 7a 7a af bf 1c 26 3b 17 6b 67 c1 bf
       -0.06148130890969623 -0.1359685767586577
000020 f2 4f e6 70 73 55 86 3f 12 82 80 5f b4 fd 67 bf
       0.010905172236370195 -0.002928592959520645
000030 77 ba c0 ca bd 07 9a bf d1 d5 3b a9 78 e1 86 3f
       -0.025420156002093876 0.011172239937404268
000040 91 3c c5 ca 60 83 a3 bf 47 05 c4 50 d0 7a a1 3f
       -0.03811171031213079 0.03414011941823474
000050 39 ac c5 d4 3c af ad bf 01 c1 db 6b 50 e3 aa 3f
       -0.057977581952251396 0.052515519300756715
000060 d9 b9 e2 0e 39 58 70 3f 7f 6b 38 e8 e0 e6 ba 3f
       0.003990385898005455 0.10508542699282762
000070 c0 26 14 3b c1 3a 8c 3f 38 9c 58 97 21 e6 ae bf
       0.013783940902175273 -0.06034951183783516
